vehicle/autoware_raw_vehicle_cmd_converter/src/vehicle_adaptor/autoware_vehicle_adaptor/inputs_schedule_prediction_model/acc_schedule_predictor.pth (torch, 439306 bytes, 25 tensors)

input_transition_matrix f4 [15, 15]
0	0x00000000	0.0
1	0x00000000	0.0
2	0x00000000	0.0
3	0x00000000	0.0
4	0x00000000	0.0
5	0x00000000	0.0
6	0x00000000	0.0
7	0x00000000	0.0
8	0x00000000	0.0
9	0x00000000	0.0
10	0x00000000	0.0
11	0x00000000	0.0
12	0x00000000	0.0
13	0x00000000	0.0
14	0x00000000	0.0
15	0x3f800000	1.0
16	0x00000000	0.0
17	0x00000000	0.0
18	0x00000000	0.0
19	0x00000000	0.0
20	0x00000000	0.0
21	0x00000000	0.0
22	0x00000000	0.0
23	0x00000000	0.0
24	0x00000000	0.0
25	0x00000000	0.0
26	0x00000000	0.0
27	0x00000000	0.0
28	0x00000000	0.0
29	0x00000000	0.0
30	0x00000000	0.0
31	0x3f800000	1.0
32	0x00000000	0.0
33	0x00000000	0.0
34	0x00000000	0.0
35	0x00000000	0.0
36	0x00000000	0.0
37	0x00000000	0.0
38	0x00000000	0.0
39	0x00000000	0.0
40	0x00000000	0.0
41	0x00000000	0.0
42	0x00000000	0.0
43	0x00000000	0.0
44	0x00000000	0.0
45	0x00000000	0.0
46	0x00000000	0.0
47	0x3f800000	1.0
48	0x00000000	0.0
49	0x00000000	0.0
50	0x00000000	0.0
51	0x00000000	0.0
52	0x00000000	0.0
53	0x00000000	0.0
54	0x00000000	0.0
55	0x00000000	0.0
56	0x00000000	0.0
57	0x00000000	0.0
58	0x00000000	0.0
59	0x00000000	0.0
60	0x00000000	0.0
61	0x00000000	0.0
62	0x00000000	0.0
63	0x3f800000	1.0
64	0x00000000	0.0
65	0x00000000	0.0
66	0x00000000	0.0
67	0x00000000	0.0
68	0x00000000	0.0
69	0x00000000	0.0
70	0x00000000	0.0
71	0x00000000	0.0
72	0x00000000	0.0
73	0x00000000	0.0
74	0x00000000	0.0
75	0x00000000	0.0
76	0x00000000	0.0
77	0x00000000	0.0
78	0x00000000	0.0
79	0x3f800000	1.0
80	0x00000000	0.0
81	0x00000000	0.0
82	0x00000000	0.0
83	0x00000000	0.0
84	0x00000000	0.0
85	0x00000000	0.0
86	0x00000000	0.0
87	0x00000000	0.0
88	0x00000000	0.0
89	0x00000000	0.0
90	0x00000000	0.0
91	0x00000000	0.0
92	0x00000000	0.0
93	0x00000000	0.0
94	0x00000000	0.0
95	0x3f800000	1.0
96	0x00000000	0.0
97	0x00000000	0.0
98	0x00000000	0.0
99	0x00000000	0.0
100	0x00000000	0.0
101	0x00000000	0.0
102	0x00000000	0.0
103	0x00000000	0.0
104	0x00000000	0.0
105	0x00000000	0.0
106	0x00000000	0.0
107	0x00000000	0.0
108	0x00000000	0.0
109	0x00000000	0.0
110	0x00000000	0.0
111	0x3f800000	1.0
112	0x00000000	0.0
113	0x00000000	0.0
114	0x00000000	0.0
115	0x00000000	0.0
116	0x00000000	0.0
117	0x00000000	0.0
118	0x00000000	0.0
119	0x00000000	0.0
120	0x00000000	0.0
121	0x00000000	0.0
122	0x00000000	0.0
123	0x00000000	0.0
124	0x00000000	0.0
125	0x00000000	0.0
126	0x00000000	0.0
127	0x3f800000	1.0
128	0x00000000	0.0
129	0x00000000	0.0
130	0x00000000	0.0
131	0x00000000	0.0
132	0x00000000	0.0
133	0x00000000	0.0
134	0x00000000	0.0
135	0x00000000	0.0
136	0x00000000	0.0
137	0x00000000	0.0
138	0x00000000	0.0
139	0x00000000	0.0
140	0x00000000	0.0
141	0x00000000	0.0
142	0x00000000	0.0
143	0x3f800000	1.0
144	0x00000000	0.0
145	0x00000000	0.0
146	0x00000000	0.0
147	0x00000000	0.0
148	0x00000000	0.0
149	0x00000000	0.0
150	0x00000000	0.0
151	0x00000000	0.0
152	0x00000000	0.0
153	0x00000000	0.0
154	0x00000000	0.0
155	0x00000000	0.0
156	0x00000000	0.0
157	0x00000000	0.0
158	0x00000000	0.0
159	0x3f800000	1.0
160	0x00000000	0.0
161	0x00000000	0.0
162	0x00000000	0.0
163	0x00000000	0.0
164	0x00000000	0.0
165	0x00000000	0.0
166	0x00000000	0.0
167	0x00000000	0.0
168	0x00000000	0.0
169	0x00000000	0.0
170	0x00000000	0.0
171	0x00000000	0.0
172	0x00000000	0.0
173	0x00000000	0.0
174	0x00000000	0.0
175	0x3f800000	1.0
176	0x00000000	0.0
177	0x00000000	0.0
178	0x00000000	0.0
179	0x00000000	0.0
180	0x00000000	0.0
181	0x00000000	0.0
182	0x00000000	0.0
183	0x00000000	0.0
184	0x00000000	0.0
185	0x00000000	0.0
186	0x00000000	0.0
187	0x00000000	0.0
188	0x00000000	0.0
189	0x00000000	0.0
190	0x00000000	0.0
191	0x3f800000	1.0
192	0x00000000	0.0
193	0x00000000	0.0
194	0x00000000	0.0
195	0x00000000	0.0
196	0x00000000	0.0
197	0x00000000	0.0
198	0x00000000	0.0
199	0x00000000	0.0
200	0x00000000	0.0
201	0x00000000	0.0
202	0x00000000	0.0
203	0x00000000	0.0
204	0x00000000	0.0
205	0x00000000	0.0
206	0x00000000	0.0
207	0x3f800000	1.0
208	0x00000000	0.0
209	0x00000000	0.0
210	0x00000000	0.0
211	0x00000000	0.0
212	0x00000000	0.0
213	0x00000000	0.0
214	0x00000000	0.0
215	0x00000000	0.0
216	0x00000000	0.0
217	0x00000000	0.0
218	0x00000000	0.0
219	0x00000000	0.0
220	0x00000000	0.0
221	0x00000000	0.0
222	0x00000000	0.0
223	0x3f800000	1.0
224	0x3f800000	1.0

add_new_input f4 [1, 15]
0	0x00000000	0.0
1	0x00000000	0.0
2	0x00000000	0.0
3	0x00000000	0.0
4	0x00000000	0.0
5	0x00000000	0.0
6	0x00000000	0.0
7	0x00000000	0.0
8	0x00000000	0.0
9	0x00000000	0.0
10	0x00000000	0.0
11	0x00000000	0.0
12	0x00000000	0.0
13	0x00000000	0.0
14	0x3f800000	1.0

weight_ih_l0 f4 [256, 2]
0	0xbebf86db	-0.37407574
1	0xbce83f10	-0.028350383
2	0xbe6b0782	-0.22952083
3	0xbdb9246a	-0.090401486
4	0xbd67f4a1	-0.05662978
5	0x3df52026	0.119690225
6	0xbe4d2b47	-0.2003604
7	0x3dd7b5a2	0.105326906
8	0xbf52d127	-0.8235039
9	0x3dc797d1	0.097457536
10	0xbf27e6bf	-0.65586466
11	0x351ceac5	5.8456163e-07
12	0xbf265f5b	-0.6498925
13	0xbc9b29fa	-0.018940914
14	0xbe9e61f3	-0.30934104
15	0x3e47159a	0.19441834
16	0xbdea5107	-0.11441236
17	0x3d8d2bdf	0.06893133
18	0xbf266d3b	-0.6501042
19	0x3ebdb9a5	0.37055698
20	0x3da64529	0.0811866
21	0x3e99a3d7	0.30007812
22	0xbf2afba6	-0.66790235
23	0x3e116060	0.1419692
24	0xbea48bfb	-0.32138047
25	0xbdd71862	-0.105026975
26	0xbf009a2b	-0.5023524
27	0x3d6d0558	0.057866424
28	0xbea7eaa1	-0.32796195
29	0xbd48bbb7	-0.049007144
30	0x3e2993fe	0.16560361
31	0x3e7d1fe0	0.2471919
32	0xbefe0706	-0.49614733
33	0xbdd85874	-0.10563746
34	0x3e18eb8b	0.14933603
35	0xbdabaef1	-0.08382977
36	0xbe4333ec	-0.19062775
37	0x3c72f166	0.014828062
38	0xbf51cc51	-0.8195239
39	0xbe664487	-0.22487079
40	0xbe086d79	-0.1332301
41	0xbcb9598e	-0.02262571
42	0xbd1c9e52	-0.038236924
43	0xbe97f58f	-0.29679534
44	0xbf730cb6	-0.9494127
45	0xbe48810f	-0.19580482
46	0xbeef6dcc	-0.46763456
47	0xbdc43622	-0.095806375
48	0xbf075bd8	-0.5287452
49	0x3e7b8392	0.24561909
50	0xbe91d04f	-0.2847924
51	0xbdca09a8	-0.09865123
52	0x3e9d2e23	0.30699262
53	0x3e931417	0.28726265
54	0xbe84d740	-0.25945473
55	0xbbfe8600	-0.007767439
56	0xbc3d10f8	-0.01153969
57	0xbefe73b3	-0.49697646
58	0xbf001367	-0.50029606
59	0xbc47081d	-0.01214793
60	0xbd142bec	-0.0361747
61	0x3ec9d148	0.3941748
62	0xbbff4adb	-0.007790906
63	0x3ee49891	0.4464765
64	0x3d171981	0.036889557
65	0xbe0c24b3	-0.13685875
66	0xbf4851ec	-0.7825
67	0xbea87525	-0.32901874
68	0x3ba3d63c	0.004999904
69	0x3e4b4f5a	0.19854489
70	0xbf236e22	-0.63839924
71	0xbe1cf95e	-0.15329501
72	0xbe43d498	-0.19124067
73	0xbe247e29	-0.16063751
74	0xbe4f0c83	-0.20219617
75	0x3e1667c0	0.14688015
76	0xbe1ef69d	-0.15523763
77	0x3b2a2b26	0.002596566
78	0xbf39ffae	-0.7265576
79	0xbe60f439	-0.21968164
80	0xbec6c9e6	-0.3882591
81	0xbe45b428	-0.19307005
82	0xbf85c4e4	-1.0450711
83	0xbd9c99e3	-0.07646539
84	0x3e7a1bfd	0.24424739
85	0xbdbcd344	-0.09219983
86	0xbf37dd64	-0.7182219
87	0x37fae29e	2.990785e-05
88	0xbe0f0dfc	-0.13970178
89	0xbe2e877d	-0.17043872
90	0xbefd5122	-0.49475962
91	0xbd0c71cf	-0.034288224
92	0xbf017831	-0.5057402
93	0xbd11a115	-0.03555401
94	0xbf33cc82	-0.7023393
95	0x3ddd26e9	0.10798437
96	0xbf09f299	-0.538858
97	0xbe5ae77a	-0.21377364
98	0xbef222e2	-0.47292238
99	0xbecefa7d	-0.40425482
100	0xbe43333b	-0.19062512
101	0x3e846fdf	0.258666
102	0xbeb51f0f	-0.35375258
103	0xbe70b5f3	-0.23506908
104	0xbf053fdd	-0.5205057
105	0x3ed158fa	0.40888196
106	0xbf1da339	-0.61577183
107	0x3e6770fd	0.22601695
108	0x3ebf0ca5	0.37314335
109	0xbe7b1d4d	-0.24522896
110	0xbd8d579a	-0.06901474
111	0x3da17852	0.078842774
112	0xbf5cff81	-0.8632737
113	0xbd20ed08	-0.03928855
114	0x3da747c5	0.08167986
115	0xbc1fe52b	-0.009759228
116	0xbd141c06	-0.036159538
117	0xbe510b7a	-0.20414534
118	0xbf0b2a2c	-0.54361224
119	0x35c4c7dd	1.4661306e-06
120	0xbe25f745	-0.16207607
121	0xbc496dc0	-0.012294233
122	0xbf0b29a8	-0.5436044
123	0xbe2d0b4b	-0.16898839
124	0xbf0fdef5	-0.5619958
125	0xbbed3fc0	-0.0072402656
126	0xbf0d8291	-0.55277354
127	0x3dcf870e	0.101331815
128	0xbde204c0	-0.11036062
129	0xbcf6d0ab	-0.030128798
130	0xbe8f511d	-0.27991572
131	0xbd17210f	-0.03689676
132	0xbc915354	-0.01773993
133	0x3e471c43	0.19444375
134	0xbeb28fb0	-0.3487525
135	0x3d60fbd5	0.054927666
136	0xbf101adf	-0.56291
137	0x3e4c4750	0.19949079
138	0xbcc72d7d	-0.024313683
139	0x352d71fb	6.4613386e-07
140	0xbebe65f0	-0.37187147
141	0x3ac89e54	0.0015305975
142	0xbe731468	-0.23738253
143	0x3dc27b72	0.094962016
144	0xbea764ec	-0.32694185
145	0x3b583a22	0.0032993634
146	0xbeadbae5	-0.33931652
147	0x3f053132	0.5202819
148	0xbc75d417	-0.015004179
149	0x3eb82f8a	0.3597377
150	0xbe45afb6	-0.1930531
151	0x33f6dc40	1.1495331e-07
152	0xbe38500e	-0.17999288
153	0xbbabde4f	-0.005245007
154	0xbee71f54	-0.4514109
155	0x3c72fe62	0.014831157
156	0xbd950890	-0.07277024
157	0xbb8bc9ec	-0.0042660143
158	0x3f1ca820	0.6119404
159	0x3f284fee	0.65746963
160	0xbe8f70eb	-0.28015837
161	0xbb332cb8	-0.0027339887
162	0x3cf59557	0.029978437
163	0xbe08e7f8	-0.13369739
164	0x3d62f36d	0.05540793
165	0xbaaa731b	-0.0013004275
166	0xbf3bf051	-0.7341357
167	0xbd9e7f10	-0.07739079
168	0xbd0ee375	-0.03488489
169	0xbe25500e	-0.1614382
170	0xbdfa88a9	-0.12233097
171	0xbecd8855	-0.40143076
172	0xbf8d131a	-1.1021454
173	0xbe8c71e6	-0.27430648
174	0xbeec24dc	-0.4612187
175	0x39bb9f28	0.00035786
176	0xbeb596ea	-0.354667
177	0x3ec63c51	0.38717893
178	0xbe829a0a	-0.25508147
179	0xbd3be509	-0.04587272
180	0x3e887bdb	0.26656994
181	0x3e8167c0	0.25274467
182	0xbe58959a	-0.21150818
183	0xbd2985c0	-0.04138732
184	0x3c5cce93	0.0134769855
185	0xbefba945	-0.4915258
186	0xbe707920	-0.23483706
187	0xbb94f072	-0.004545265
188	0xbcc04640	-0.023470998
189	0x3e99f7e4	0.30071938
190	0x3ec09925	0.3761684
191	0x3ed191da	0.40931588
192	0xbc2b156e	-0.010442121
193	0xbde5d0cf	-0.11221468
194	0xbf543fe2	-0.8290998
195	0xbed88ebb	-0.42296395
196	0xbd1bea4c	-0.03806524
197	0x3e002f8a	0.12518135
198	0xbf0593db	-0.52178735
199	0xbd348b87	-0.044078376
200	0xbe489686	-0.1958867
201	0xbe76241d	-0.24037214
202	0xbe1d30bb	-0.1535062
203	0xbbffad8d	-0.0078026713
204	0xbe973e74	-0.29539835
205	0x3c6f8b02	0.014620544
206	0xbcf747c8	-0.030185595
207	0xb4cb9005	-3.7916485e-07
208	0xbeedcc0f	-0.46444747
209	0xbcdb9748	-0.026805535
210	0xbf734f20	-0.9504261
211	0xbe221fb8	-0.15832412
212	0x3f0b113d	0.5432318
213	0x3e33f355	0.17573293
214	0xbdcdc12a	-0.10046609
215	0xb515f787	-5.5867025e-07
216	0xbe8fc46a	-0.2807954
217	0xbe8c0bdc	-0.27352798
218	0xbeb5fafc	-0.35543048
219	0x3515ecb6	5.5851285e-07
220	0xbef63b11	-0.4809194
221	0xbb33a152	-0.0027409387
222	0xbf260cdd	-0.6486338
223	0x3e34ee7c	0.176691
224	0xbe54b546	-0.20772275
225	0x358fb7f0	1.0707863e-06
226	0xbee7d513	-0.4527975
227	0xbe065c9f	-0.1312127
228	0xbe3b01f9	-0.18262471
229	0x3ea4d3db	0.32192883
230	0xbe66d459	-0.22541942
231	0x38c34b46	9.312345e-05
232	0xbe9c24e3	-0.30496892
233	0x3ec0915a	0.37610894
234	0xbe23180a	-0.15927139
235	0x3d80525d	0.062657095
236	0x3f1c38a4	0.61023927
237	0xbe8427f5	-0.25811735
238	0xbe4045d7	-0.18776642
239	0x3e290bbc	0.16508383
240	0xbf92e86b	-1.1477178
241	0xbe89ae7b	-0.2689093
242	0x3dd9255c	0.10602829
243	0x3e0a551e	0.13509032
244	0xbe17063a	-0.14748469
245	0xbe7a32dd	-0.24433465
246	0xbe5242b8	-0.20533264
247	0x34e04500	4.1773455e-07
248	0xbe374f74	-0.17901403
249	0xbd9ced1c	-0.076624125
250	0xbeae9f3d	-0.34105864
251	0x3414b554	1.3849541e-07
252	0xbe19f9af	-0.15036653
253	0x3691a80d	4.3409004e-06
254	0xbf07eb67	-0.5309357
255	0x3eaec7f8	0.3413694

weight_hh_l0 f4 [256, 64]
0	0x3c83dc41	0.016096236
1	0xb450ee64	-1.9458236e-07
2	0xbdeb630d	-0.11493502
3	0x36c004b3	5.722593e-06
4	0x336cdbb4	5.514785e-08
5	0x34b5e844	3.3882873e-07
6	0xb4bfc58b	-3.5720254e-07
7	0xb5a88ed8	-1.2558548e-06
8	0xb6165214	-2.2399518e-06
9	0xbdef6053	-0.11688294
10	0xbc0540b1	-0.008133099
11	0x329360c0	1.715705e-08
12	0xb5306c4e	-6.5722713e-07
13	0xb2a212c1	-1.886781e-08
14	0xb3dde725	-1.03331594e-07
15	0x3edbd018	0.429322
16	0x3469d4cd	2.1777232e-07
17	0xbb1abf0d	-0.002361241
18	0x3c5bead1	0.013422684
19	0x35582275	8.051641e-07
20	0x3c8f8149	0.017517703
21	0xbd54469e	-0.05182516
22	0x3da1b806	0.07896428
23	0x3367ac92	5.394083e-08
24	0xbcf05104	-0.029335506
25	0x34c57ae3	3.678352e-07
26	0xbd1b4606	-0.037908576
27	0xbc1818d8	-0.009283267
28	0xbaeb8a0e	-0.0017970221
29	0x35361f3e	6.7845747e-07
30	0xbae05e6b	-0.0017117982
31	0xbdd66db1	-0.10470141
32	0x3e75ecd5	0.24016126
33	0xbd647f00	-0.05578518
34	0xb3c4e50a	-9.168623e-08
35	0x33d3e8b6	9.867783e-08
36	0x394de9e6	0.00019637457
37	0xb9cb9e61	-0.0003883718
38	0xb431a3f5	-1.6544057e-07
39	0xb448feb2	-1.8719109e-07
40	0x35ffd489	1.9060836e-06
41	0xbbe13694	-0.0068729613
42	0x3dd0b0c2	0.10189964
43	0xb3c073ce	-8.9617615e-08
44	0x351b645a	5.788803e-07
45	0xb2cc40d9	-2.3778215e-08
46	0xb469c8bf	-2.1772847e-07
47	0x3da5b75c	0.08091614
48	0xb3120138	-3.3994382e-08
49	0x354150c0	7.201561e-07
50	0x3bcc3aa5	0.006232577
51	0x3505e12d	4.9874035e-07
52	0x3e0df274	0.1386202
53	0x330fc5b2	3.3474585e-08
54	0x3ebe2741	0.37139323
55	0x3c13e814	0.0090275
56	0x3dc5d169	0.096590824
57	0xbb334f0a	-0.0027360343
58	0xbcad6050	-0.02116409
59	0xb45481ab	-1.9791212e-07
60	0x33cbd7e4	9.4921944e-08
61	0xb4d4f7c1	-3.9668342e-07
62	0xb3a2de75	-7.5841776e-08
63	0x3a898ed7	0.001049484
64	0x354d6e16	7.652865e-07
65	0xb84e2885	-4.9151964e-05
66	0xbd0b4f3c	-0.03401111
67	0xb55a2699	-8.1267495e-07
68	0x37980ec7	1.8126693e-05
69	0x34b2c838	3.3300762e-07
70	0xb5bb9e2b	-1.3978619e-06
71	0x342d934a	1.6165464e-07
72	0x3d0d606a	0.034515776
73	0x3d436260	0.04770124
74	0xbca58317	-0.02020411
75	0xb4106818	-1.3448914e-07
76	0xb51ba4af	-5.7981646e-07
77	0x35a0188c	1.1928073e-06
78	0x35012107	4.8104306e-07
79	0x3d90d2dc	0.07071468
80	0xb54779ad	-7.431034e-07
81	0xbd88c7c8	-0.0667873
82	0xbdfd5f73	-0.12371721
83	0x35295f84	6.30964e-07
84	0x3c3e3882	0.011610152
85	0x3c48f3c3	0.012265149
86	0xb5db0448	-1.6318018e-06
87	0xb582c202	-9.742218e-07
88	0x3c7d5cdd	0.015464035
89	0x3577452c	9.211533e-07
90	0xbd96500f	-0.07339489
91	0xb4ce9644	-3.8479823e-07
92	0xbb5e1250	-0.0033885427
93	0x35346eca	6.7216445e-07
94	0x3c462b94	0.012095351
95	0x3d0d1a23	0.034448754
96	0x3e212fcc	0.1574089
97	0x3b9558ce	0.0045577055
98	0x356547ac	8.5413444e-07
99	0x352055a7	5.9729285e-07
100	0x35b4edb5	1.3480227e-06
101	0x3c45b0b2	0.012066053
102	0x3531b8f5	6.6206786e-07
103	0xb2b05a48	-2.0530152e-08
104	0xb5271642	-6.224474e-07
105	0x39c7aae1	0.00038083552
106	0xbce26948	-0.027638093
107	0x3472ecad	2.2624108e-07
108	0xb591c4a4	-1.0860572e-06
109	0x3551c63c	7.8147036e-07
110	0xb537600d	-6.8312585e-07
111	0xbbd7d3f0	-0.006586544
112	0x3594e53e	1.1093578e-06
113	0xb49a8d7b	-2.8787676e-07
114	0xbce134eb	-0.027491054
115	0xb54f9469	-7.7329474e-07
116	0xbd9ee50f	-0.07758533
117	0x34770025	2.300372e-07
118	0x3e43b81f	0.19113205
119	0x3c69c2f3	0.014267671
120	0xbe57c566	-0.21071395
121	0x3582e642	9.752769e-07
122	0xbdc8dbc5	-0.09807543
123	0xb58ba482	-1.0404185e-06
124	0xb385d72f	-6.232437e-08
125	0xb51f405d	-5.9325777e-07
126	0x35277ba2	6.239226e-07
127	0x3db1bc36	0.086784765
128	0x3d862a1c	0.065510005
129	0x3d421f4a	0.04739312
130	0x3de4e6ea	0.11176856
131	0xba2d0f34	-0.0006601692
132	0x34910343	2.7010728e-07
133	0xb4258993	-1.5416872e-07
134	0x3a804401	0.0009785892
135	0x3acf9b99	0.0015839218
136	0xbd870d5b	-0.06594344
137	0x3d9c6a98	0.07637519
138	0xbcdbc0f2	-0.026825402
139	0x3539501b	6.903444e-07
140	0x3644445b	2.9246064e-06
141	0x3d029834	0.031883433
142	0xb530defa	-6.5889583e-07
143	0x3daa068c	0.0830203
144	0xb3dd2567	-1.0297918e-07
145	0xbc15285f	-0.0091038635
146	0x3df74927	0.120744996
147	0x3e043491	0.12910677
148	0xbe21eef8	-0.15813816
149	0xbdb3ce21	-0.0877955
150	0x3da73153	0.08163705
151	0x3d07c156	0.033143364
152	0x3e087074	0.13324147
153	0xbc3e2368	-0.011605121
154	0xbce47e69	-0.027892308
155	0x3e0f4656	0.13991675
156	0x3d33dcb9	0.04391167
157	0x3c02728a	0.007961879
158	0x3b9e0294	0.0048220847
159	0x3c4e4f06	0.012592083
160	0xbdccdec3	-0.10003426
161	0xbd18f329	-0.03734127
162	0xbd86cbcb	-0.06581839
163	0x38cafa47	9.6787284e-05
164	0x3e12c4c0	0.14332867
165	0xbde7942a	-0.11307557
166	0x3d01860b	0.031621974
167	0xb3050ac7	-3.0976278e-08
168	0x3d8153ae	0.06314789
169	0xbdd94e95	-0.106106915
170	0x3d66df5a	0.05636535
171	0x34ab1492	3.18662e-07
172	0x3a001d70	0.0004887199
173	0x3b2a6dea	0.0026005455
174	0x3c1cbbd3	0.009566265
175	0xbe162b50	-0.1466496
176	0x35127909	5.456537e-07
177	0xbd66d940	-0.05635953
178	0xbce40701	-0.027835371
179	0xb74e05f7	-1.2279946e-05
180	0xbd4fd920	-0.050744176
181	0xb5f9bca8	-1.8606852e-06
182	0xbd1a3414	-0.03764732
183	0xbe0b127a	-0.13581267
184	0x3de65362	0.11246373
185	0xbdb7103d	-0.08938644
186	0x3e19c458	0.15016305
187	0xbd2bfc81	-0.041988853
188	0xbc8bbb08	-0.017056957
189	0x3832189f	4.2461437e-05
190	0xb68130cc	-3.8501803e-06
191	0xbe53e956	-0.2069448
192	0xb301fe19	-3.0266254e-08
193	0xb5898679	-1.0246432e-06
194	0x3d1db943	0.038506757
195	0x353b2be3	6.972679e-07
196	0x358c94d7	1.0474131e-06
197	0xb4a5eec4	-3.090737e-07
198	0x34ae1fd8	3.2433195e-07
199	0x35d2c07f	1.5702243e-06
200	0xb627c27e	-2.4998149e-06
201	0xbc5ec5c5	-0.013596957
202	0x3ba89c73	0.0051456033
203	0xb51b1d92	-5.778503e-07
204	0x3449920b	1.8772714e-07
205	0x3466f871	2.1510802e-07
206	0xb27b7868	-1.46375e-08
207	0xbd424bbc	-0.047435507
208	0xb59598a2	-1.1145787e-06
209	0x3bad4a1b	0.005288375
210	0x3e265d82	0.16246608
211	0x358b70da	1.0389151e-06
212	0xbd821eae	-0.06353508
213	0xbbfba7b1	-0.0076799025
214	0xb998d2ce	-0.0002914876
215	0xb5baa4ef	-1.3906082e-06
216	0x39a618ac	0.0003168037
217	0x35665734	8.5808574e-07
218	0x3ceba523	0.028765267
219	0x3a1fe66e	0.00060997054
220	0xb7af0047	-2.0861755e-05
221	0xb2430568	-1.1351723e-08
222	0xb5a60a47	-1.2370955e-06
223	0x36a8245f	5.0110243e-06
224	0xbd45ec43	-0.04832102
225	0xbcca7681	-0.02471471
226	0x34963f60	2.798579e-07
227	0xb5f469c7	-1.8210202e-06
228	0x36324b29	2.6567816e-06
229	0xb717fb62	-9.058831e-06
230	0x32f8f060	2.898031e-08
231	0x33dfcb20	1.0421195e-07
232	0x366ce45f	3.529967e-06
233	0x3481440f	2.4077642e-07
234	0xbd7ca050	-0.061676323
235	0xb4469bcb	-1.8496864e-07
236	0xb381257a	-6.0138476e-08
237	0x33543ea2	4.941706e-08
238	0xb538f042	-6.889496e-07
239	0x3cf5ac72	0.029989455
240	0x33d96394	1.0122963e-07
241	0x34d41ad5	3.95076e-07
242	0x3b78696d	0.0037904636
243	0xb5baae86	-1.3908873e-06
244	0x3c0cece9	0.008601406
245	0x34b912c7	3.4472598e-07
246	0xbd49049e	-0.04907667
247	0xb78b5336	-1.660884e-05
248	0x3cc5888d	0.024112964
249	0xb8058398	-3.1832227e-05
250	0x3da9d6ab	0.08292898
251	0xb32c3e2b	-4.0103412e-08
252	0xb6019b5a	-1.9312924e-06
253	0x35672d1d	8.6119854e-07
254	0x336ba1c8	5.486234e-08
255	0xbd500d24	-0.050793782

bias_ih_l0 f4 [256]
0	0xbef35bcf	-0.47530982
1	0xbe3ae751	-0.18252303
2	0x3d9f1f42	0.07769634
3	0x3cb1a0fd	0.02168321
4	0xbf02502d	-0.5090359
5	0xbf5e708c	-0.8689048
6	0xbf0afe8c	-0.5429466
7	0xbf043d59	-0.5165611
8	0xbe21a792	-0.15786579
9	0xbe3d3271	-0.18476273
10	0xbcc23eca	-0.02371158
11	0xbf4fc4d7	-0.8115973
12	0xbeceea82	-0.4041329
13	0xbeb6fc93	-0.35739574
14	0xbf20b0f2	-0.6277
15	0xbd3b997a	-0.045800664
16	0xbf186243	-0.59524935
17	0x3d0d31d0	0.034471333
18	0x3e635ae1	0.22202636
19	0xbe9c6235	-0.30543676
20	0xbddc8588	-0.107676566
21	0xbc977995	-0.018490592
22	0xbe50ee3a	-0.20403376
23	0xbeb9c7ee	-0.36285347
24	0xbe9c12fa	-0.30483228
25	0xbed23197	-0.4105346
26	0xbda33e7f	-0.079709046
27	0xbcdfe5ed	-0.027331317
28	0xbde097e6	-0.10966472
29	0xbeee52db	-0.4654759
30	0xbe8d307c	-0.27576053
31	0xbece32e1	-0.40273193
32	0xbdc16540	-0.0944314
33	0xbe9baf3b	-0.30407128
34	0xbe0f16c5	-0.1397353
35	0xbe81fa74	-0.25386393
36	0xbea95079	-0.33069208
37	0xbe5b9e62	-0.21447137
38	0xbe55eae4	-0.20890385
39	0xbf4866ce	-0.7828187
40	0xbeb9adae	-0.3626532
41	0xbe410238	-0.18848503
42	0xbd7190c3	-0.058975946
43	0xbf63a9f4	-0.889312
44	0xbeb96300	-0.36208344
45	0xbeb03e30	-0.34422445
46	0xbe221d90	-0.1583159
47	0xbd632017	-0.055450525
48	0xbf47fd4b	-0.7812087
49	0xbebed4b7	-0.37271664
50	0xbe12717c	-0.14301103
51	0xbf013fa7	-0.5048775
52	0xbe805858	-0.250674
53	0xbf441e6d	-0.76608926
54	0x3e708b70	0.23490691
55	0xbd6e233c	-0.05813907
56	0xbe6edecf	-0.23327182
57	0x3c4b7371	0.01241766
58	0x3e1748d1	0.14773871
59	0xbefefa45	-0.49800315
60	0xbe9c48de	-0.30524343
61	0xbeecdb68	-0.46261144
62	0xbf3f3da1	-0.74703413
63	0xbd9426f0	-0.07233989
64	0xbea240e8	-0.31690145
65	0xbe09db01	-0.1346245
66	0x3dcc81da	0.09985705
67	0xbda0dcba	-0.078546
68	0xbebc1bc5	-0.36739936
69	0xbea55034	-0.32287753
70	0xbec28434	-0.37991488
71	0xbead5b61	-0.3385878
72	0x3d079473	0.033100557
73	0x3db858b5	0.090012945
74	0x3c4dc2ac	0.01255862
75	0xbf042ae5	-0.5162795
76	0xbecc18aa	-0.39862567
77	0xbea4a187	-0.32154486
78	0xbed08f41	-0.40734294
79	0x3e33936d	0.17536707
80	0xbeb36248	-0.3503592
81	0xbd9636c7	-0.07334667
82	0x3ecf7f7f	0.4052696
83	0xbe6ca7d0	-0.2311089
84	0xbd851a3e	-0.06499146
85	0xbcfb2420	-0.030656874
86	0x3cae5c03	0.021284109
87	0xbe6dc926	-0.23221263
88	0xbe245bdf	-0.16050671
89	0xbe990a97	-0.29890892
90	0x3d558df9	0.05213735
91	0xbd1501e3	-0.036378752
92	0xbd86733e	-0.065649495
93	0xbe9deab0	-0.30843115
94	0xbd7f1465	-0.06227531
95	0xbd9e8278	-0.07739729
96	0xbcc24fb0	-0.023719639
97	0xbcff6350	-0.031175286
98	0xbe83f57e	-0.25773233
99	0xbeb7ed1f	-0.35923097
100	0xbe94f24d	-0.2909111
101	0xbe9461ce	-0.2898087
102	0xbe9fd91f	-0.31220338
103	0xbee31d37	-0.44358227
104	0xbed5b4df	-0.41739556
105	0xbe309771	-0.1724527
106	0x3db76da1	0.08956457
107	0xbeeb74a7	-0.45987436
108	0xbe6136e7	-0.219936
109	0xbecf1638	-0.4044664
110	0xbe692fe5	-0.22772177
111	0x3e014c25	0.12626703
112	0xbf152f79	-0.5827556
113	0xbee5a1b9	-0.44849947
114	0xbd8bc6c7	-0.06825023
115	0xbec61e00	-0.38694763
116	0x3ced4be9	0.02896686
117	0xbeeca2f9	-0.46218088
118	0x3eaf078c	0.34185445
119	0xbe850ad3	-0.2598482
120	0x3cac33f1	0.021020861
121	0xbe670c0d	-0.22563191
122	0x3e055010	0.13018823
123	0xbed0f05f	-0.4080839
124	0xbe913d11	-0.28366902
125	0xbec4f166	-0.38465422
126	0xbeeb3e86	-0.4594614
127	0x3dfd3d3d	0.12365196
128	0xbd451865	-0.048118968
129	0xbc26c455	-0.010178645
130	0x3c994024	0.018707342
131	0x3d1f3d88	0.03887704
132	0x3e169e07	0.1470872
133	0x3d02a3e7	0.03189459
134	0x3d39150e	0.045186095
135	0xbda1060f	-0.07862484
136	0x3db779eb	0.08958801
137	0xbe731697	-0.23739086
138	0x3d1fbb13	0.038996767
139	0x3d00023f	0.031252142
140	0xbd00cb07	-0.031443622
141	0xbda637e0	-0.08116126
142	0xbd973187	-0.073824935
143	0x3d6d24ce	0.057896428
144	0x3e12e5aa	0.14345422
145	0xbd8836f1	-0.06651104
146	0xbd63fd00	-0.0556612
147	0xbdabd41b	-0.08390065
148	0x3dac81a2	0.08423163
149	0x3ddf7997	0.10911863
150	0xbdd2f74d	-0.10301075
151	0xbdf7b4ef	-0.12095057
152	0x3cd31ae5	0.02576966
153	0x3ce3856d	0.027773583
154	0xbdceaa26	-0.10091047
155	0x3e0a448c	0.13502711
156	0xbe12aa7a	-0.14322844
157	0x3d216a2e	0.0394079
158	0xbe0d4cec	-0.13798875
159	0xbdea00ce	-0.11425935
160	0x3d88852c	0.066660255
161	0x3c1988b5	0.009370972
162	0xbde22a9d	-0.11043284
163	0xb98e7f8c	-0.0002717938
164	0xbb8520cf	-0.004062749
165	0xbd3dd0f8	-0.046341866
166	0xbbd8ecd9	-0.0066200313
167	0xbca83964	-0.020535178
168	0x3cef994b	0.0292479
169	0x3e4983a6	0.19679126
170	0x3d929b66	0.07158546
171	0xbc489277	-0.012241951
172	0x3ba8e5fe	0.0051543703
173	0xbd003c56	-0.03130754
174	0x3bf2c8c7	0.0074091884
175	0x3e8fd447	0.28091642
176	0x3bbb2006	0.0057106046
177	0x3cbacca7	0.022802664
178	0xbcde183f	-0.02711117
179	0x3d113bf1	0.035457555
180	0x3dcfd055	0.10147158
181	0xbd90c59a	-0.070689395
182	0xba20e893	-0.0006138172
183	0xbd16cbf6	-0.036815606
184	0xbdc66a38	-0.09688228
185	0xbd3b3680	-0.045706272
186	0xbd1fd65c	-0.03902279
187	0x3d02d4d8	0.031941265
188	0xbd8b8655	-0.06812731
189	0xbdb62b35	-0.0889496
190	0x3bb1d43a	0.0054269107
191	0x3d99eeda	0.075162604
192	0xbeb27064	-0.34851372
193	0xbf34fd69	-0.70699173
194	0x3ce91ef0	0.028457135
195	0xbda1fb8b	-0.07909306
196	0xbf2ccaac	-0.6749675
197	0xbf0b1b4f	-0.54338545
198	0xbebd73c3	-0.37002382
199	0xbec4995b	-0.3839825
200	0x3ce50faa	0.02796157
201	0xbe1679f4	-0.14694959
202	0xbe2edc0a	-0.17076126
203	0xbf10500f	-0.5637216
204	0xbf28773e	-0.6580695
205	0xbe775ede	-0.24157283
206	0xbeb24d44	-0.34824574
207	0xbc3f3e95	-0.011672636
208	0xbf02268e	-0.5084008
209	0x3e0a7c03	0.13523869
210	0x3c227e32	0.009917783
211	0xbe85fbab	-0.2616857
212	0xbe2d6b01	-0.1693535
213	0x3c55f5e9	0.013059118
214	0xbe9dab7a	-0.3079489
215	0xbe84c36f	-0.25930354
216	0xbe378282	-0.17920879
217	0xbebdfc22	-0.37106425
218	0xbd798f5b	-0.06092773
219	0xbd6063b3	-0.05478258
220	0xbeb68810	-0.35650682
221	0xbea84e5c	-0.32872283
222	0xbe28ee47	-0.16497146
223	0xbea06260	-0.31325054
224	0x3c95d703	0.018291002
225	0xbdc76f5f	-0.09738039
226	0xbe2eb94b	-0.17062871
227	0xbe48d485	-0.1961232
228	0xbed277e6	-0.411071
229	0xbe803033	-0.25036773
230	0xbed5e239	-0.41774157
231	0xbf12d3f5	-0.5735467
232	0xbe3f8af9	-0.18705358
233	0xbe8a8600	-0.2705536
234	0x3d03610a	0.032074966
235	0xbeb93077	-0.36169788
236	0xbebfc086	-0.3745157
237	0xbeb7b97f	-0.3588371
238	0xbe975289	-0.29555157
239	0xbe497a65	-0.19675596
240	0xbead3559	-0.33829764
241	0xbf053951	-0.5204058
242	0xbe397f1c	-0.18114895
243	0xbecec659	-0.40385702
244	0xbeaafa32	-0.3339401
245	0xbeb69e10	-0.35667467
246	0xbd790466	-0.06079521
247	0xbeaf9397	-0.3429229
248	0xbd40f28f	-0.047106322
249	0xbe111eb3	-0.14171867
250	0xbd3eaadf	-0.046549674
251	0xbf0b19f1	-0.5433646
252	0xbe9e24c6	-0.3088743
253	0xbeb4546d	-0.35220662
254	0xbf1e7af1	-0.61906344
255	0xbe61b1be	-0.2204046

bias_hh_l0 f4 [256]
0	0xbef37c6a	-0.47555858
1	0xbe9b477d	-0.3032798
2	0xbd630bb0	-0.055431068
3	0xbcb14c70	-0.021642894
4	0xbf057182	-0.52126324
5	0xbf5cf3a3	-0.8630926
6	0xbf0ac80b	-0.5421149
7	0xbee24cbb	-0.44199166
8	0xbd8b8263	-0.06811979
9	0xbe871fe6	-0.26391524
10	0xbe58db0d	-0.21177311
11	0xbf560864	-0.83606553
12	0xbeff70a9	-0.4989064
13	0xbe70bb60	-0.23508978
14	0xbf107cea	-0.56440604
15	0xbdb30ba0	-0.08742452
16	0xbf08bd81	-0.5341416
17	0x3c655006	0.01399613
18	0x3e9f88f9	0.3115919
19	0xbeea1cb9	-0.4572504
20	0xbc8b1c3e	-0.01698124
21	0xbd75253c	-0.059849963
22	0xbdc3693f	-0.095415585
23	0xbe8fa19b	-0.28052983
24	0xbed2a973	-0.41144904
25	0xbea52987	-0.32258245
26	0xbc99cecb	-0.018775364
27	0xbb898ec5	-0.0041979277
28	0xbe21be8a	-0.15795341
29	0xbed7277e	-0.42022318
30	0xbe04709b	-0.1293358
31	0xbe67ee3d	-0.22649474
32	0xbdba6b05	-0.091024436
33	0xbe6a4b43	-0.22880273
34	0xbe06a382	-0.13148311
35	0xbeadbe93	-0.3393446
36	0xbe87d3e7	-0.26528856
37	0xbe8d64f3	-0.2761608
38	0xbe7d7709	-0.2475244
39	0xbf574434	-0.84088445
40	0xbe858ad8	-0.26082492
41	0xbe9060c0	-0.28198814
42	0xbde76051	-0.11297668
43	0xbf6dafbb	-0.9284627
44	0xbeb8a888	-0.3606608
45	0xbf03cd18	-0.51484823
46	0xbe557cdf	-0.20848416
47	0x3d339c1c	0.04385005
48	0xbf331ac8	-0.6996274
49	0xbf04293a	-0.51625407
50	0xbdfc204c	-0.12310848
51	0xbf0843ba	-0.5322834
52	0xbe1e411f	-0.15454529
53	0xbf614485	-0.8799518
54	0x3e62c682	0.22146037
55	0xbe510af3	-0.20414333
56	0xbe21a6dd	-0.1578631
57	0xbe371f7f	-0.17883109
58	0x3d05dd6b	0.032681864
59	0xbeefaea2	-0.46812922
60	0xbe8318c4	-0.25604832
61	0xbf0ffcc7	-0.5624508
62	0xbf1cee50	-0.61301136
63	0xbdddb5ca	-0.10825689
64	0xbe9c2b8b	-0.3050197
65	0xbe9a6daa	-0.30161792
66	0xbcb51135	-0.022102932
67	0xbe2b9102	-0.16754535
68	0xbea1edaa	-0.31626636
69	0xbed48ee4	-0.41515267
70	0xbeb5e486	-0.35525912
71	0xbef15f39	-0.47142962
72	0x3d5aa87c	0.053383335
73	0xbd60267f	-0.054724213
74	0xbe376176	-0.17908272
75	0xbf09ca3f	-0.5382423
76	0xbebc2fc9	-0.36755207
77	0xbe3cfc13	-0.18455534
78	0xbec542ed	-0.38527623
79	0x3e507463	0.20356898
80	0xbed726e0	-0.42021847
81	0xbda2ad08	-0.07943159
82	0x3efac54f	0.4897866
83	0xbe644134	-0.22290498
84	0xbdac9173	-0.0842618
85	0xbda63f0e	-0.081174955
86	0x3cbfcb24	0.023412295
87	0xbe82b8a5	-0.25531498
88	0xbe0246eb	-0.12722366
89	0xbebbb12d	-0.36658612
90	0xbd445880	-0.047935963
91	0xbd89a715	-0.067213215
92	0xbdaf5426	-0.08560972
93	0xbeb979f5	-0.36225858
94	0xbe38e92b	-0.18057697
95	0xbd3f3a1c	-0.046686277
96	0xbdc8d273	-0.09805765
97	0xbd98489d	-0.07435725
98	0xbe8b1351	-0.27163175
99	0xbe817418	-0.25283885
100	0xbe9b4e97	-0.30333397
101	0xbe18f49f	-0.14937066
102	0xbe853d95	-0.26023546
103	0xbeb95557	-0.36197922
104	0xbe9b4c59	-0.30331686
105	0xbe254d9e	-0.1614289
106	0x3db55ef9	0.08856005
107	0xbeee1475	-0.46499982
108	0xbe895417	-0.26821968
109	0xbea4ff29	-0.32225922
110	0xbea40706	-0.32036608
111	0x3e0639b9	0.13107957
112	0xbef9078b	-0.48638567
113	0xbeb9842e	-0.36233658
114	0xbc794f23	-0.015216622
115	0xbecff675	-0.4061772
116	0x3cf8285a	0.030292679
117	0xbf07d5a9	-0.53060395
118	0x3eabb418	0.33535838
119	0xbe254123	-0.16138129
120	0xbc41a8c8	-0.011820026
121	0xbdde92ba	-0.108678296
122	0x3e223c57	0.1584333
123	0xbed35478	-0.41275382
124	0xbe378825	-0.17923029
125	0xbec022aa	-0.37526447
126	0xbef3ab6b	-0.4759172
127	0x3df2986f	0.11845481
128	0xbd2365b7	-0.039891925
129	0xbd403a4d	-0.0469306
130	0xbe212071	-0.15735032
131	0x3e086f2b	0.13323657
132	0xbd1e9413	-0.038715433
133	0xbcfa623e	-0.030564424
134	0x3cdc0b30	0.026860803
135	0x3d9c8791	0.07643045
136	0x3d7948ad	0.060860325
137	0xbd26ca88	-0.040720493
138	0xbd9715d5	-0.07377211
139	0xbcdbcd30	-0.02683124
140	0x3b4cd0bd	0.0031252347
141	0xbd688151	-0.05676395
142	0xbcc35ae5	-0.023847053
143	0x3e0669d8	0.13126314
144	0xbcf0c02f	-0.029388515
145	0xbd400b2c	-0.046885654
146	0xbd47de15	-0.04879578
147	0xbd25bd2f	-0.040463623
148	0xbd0f5a27	-0.034998085
149	0xbcf9423d	-0.030427093
150	0xbde52949	-0.11189515
151	0x3cdf841e	0.027284678
152	0x3d216950	0.039407074
153	0x3d5f6824	0.054542676
154	0x3d3a6372	0.045504995
155	0x3d6dd74e	0.05806666
156	0x3c58a4ab	0.013222854
157	0x3d497bea	0.04919044
158	0xbd3786da	-0.04480634
159	0xbe018fa8	-0.12652457
160	0xbdebbc71	-0.11510552
161	0x3d784a2a	0.060617603
162	0xbae58bee	-0.0017513016
163	0xbdd68ef4	-0.10476485
164	0x3d778008	0.060424834
165	0x3ba3c8a6	0.0049982844
166	0x3b1f3410	0.0024292506
167	0x3cc11b53	0.0235726
168	0xbc4adb87	-0.012381441
169	0x3af9819b	0.0019035818
170	0x3dcf9403	0.10135653
171	0xba0124ed	-0.0004926462
172	0x3d0882ec	0.03332798
173	0x3c8a03b8	0.016847476
174	0xbe0245c2	-0.12721923
175	0x3e9a4bcc	0.30135953
176	0xbd3cfb86	-0.04613831
177	0x3d9cfb09	0.07665069
178	0xbdb42507	-0.08796125
179	0x3ccc5ad7	0.02494566
180	0x3e400e18	0.18755376
181	0xbc9dc648	-0.019259587
182	0x3a08dc1c	0.0005220787
183	0x3d97e6ed	0.074170925
184	0x3df9e052	0.12200989
185	0xbde48907	-0.111589484
186	0xbdb7425c	-0.08948204
187	0xbd14a38f	-0.036288794
188	0x3c369d01	0.011145831
189	0x3bf4da8a	0.007472341
190	0x39bcd964	0.00036020123
191	0x3d40216b	0.04690687
192	0xbea63a22	-0.32466227
193	0xbf24ed8c	-0.6442497
194	0x3c90a696	0.01765756
195	0xbcc91d57	-0.024550123
196	0xbf368725	-0.71299964
197	0xbf000003	-0.5000002
198	0xbec7e696	-0.3904311
199	0xbecb9d79	-0.3976858
200	0xbd823978	-0.063586175
201	0xbe423d42	-0.1896868
202	0xbd0639ab	-0.03276984
203	0xbf1b7321	-0.6072255
204	0xbf2802fa	-0.6562954
205	0xbe75b647	-0.23995315
206	0xbeb5d93f	-0.35517308
207	0x3d008375	0.031375367
208	0xbee28857	-0.44244644
209	0x3d74807c	0.059692845
210	0xbda9a296	-0.08282964
211	0xbe9173a7	-0.28408548
212	0xbe2f0548	-0.17091858
213	0x3d67932c	0.05653684
214	0xbe6b21a9	-0.22962059
215	0xbe7c5900	-0.24643326
216	0xbe8ea7a5	-0.27862278
217	0xbedb07c1	-0.42779353
218	0xbe7d09ef	-0.2471082
219	0x3c879a17	0.016552968
220	0xbe61b855	-0.22042973
221	0xbe7e0055	-0.24804814
222	0xbe828d7f	-0.25498578
223	0xbe1f5b5d	-0.15562196
224	0x3d0fd960	0.035119414
225	0xbdbb3985	-0.0914183
226	0xbe8864de	-0.26639456
227	0xbe58aaa0	-0.21158838
228	0xbeb2e016	-0.3493659
229	0xbe970de4	-0.29502785
230	0xbedfebe1	-0.4373465
231	0xbf2bdb84	-0.6713183
232	0xbe40a1c9	-0.18811716
233	0xbe5a8c73	-0.2134264
234	0xbd2f9876	-0.042870007
235	0xbec4ff07	-0.3847582
236	0xbec90295	-0.39259782
237	0xbf0037d8	-0.5008521
238	0xbe7b3534	-0.24532014
239	0xbe54a535	-0.20766146
240	0xbea85301	-0.32875827
241	0xbeeca471	-0.4621921
242	0xbe44b5a1	-0.19209911
243	0xbecd4d94	-0.4009825
244	0xbe8dc9c5	-0.27693
245	0xbebd4f46	-0.36974543
246	0xbd07e817	-0.033180322
247	0xbeadc5d7	-0.33940002
248	0x3dd62705	0.10456661
249	0xbca0f4f3	-0.01964805
250	0xbe1163d2	-0.14198235
251	0xbf0f9f83	-0.5610277
252	0xbea2e870	-0.3181796
253	0xbe8b9995	-0.2726561
254	0xbf1e0e22	-0.61740315
255	0xbd288441	-0.041141752

weight_ih_l1 f4 [256, 64]
0	0xb63dba50	-2.8271643e-06
1	0xb5153e5d	-5.5597576e-07
2	0x3e2953cf	0.16535877
3	0xbb9514ab	-0.004549583
4	0xb53cab02	-7.0284307e-07
5	0xb39a1cf7	-7.1764525e-08
6	0x35348e8d	6.7262664e-07
7	0xb57ac7f8	-9.342325e-07
8	0xbd8f2417	-0.069893055
9	0xbc18465a	-0.009294117
10	0x3c9dea61	0.0192768
11	0xb31bdb8b	-3.6288423e-08
12	0x359270f6	1.0910724e-06
13	0x349705cc	2.813016e-07
14	0xb45d8a63	-2.0632574e-07
15	0xbe06170d	-0.1309473
16	0x35060f15	4.994084e-07
17	0x3e1ae4b5	0.15126307
18	0x3ccc7b60	0.024961174
19	0x35ab6125	1.2768766e-06
20	0xbcac2194	-0.021012105
21	0xbdfb2295	-0.122624554
22	0x3c3f3339	0.011669927
23	0x351d9d9c	5.871641e-07
24	0xbc144ebc	-0.009051975
25	0x33caede9	9.4496336e-08
26	0x3e280377	0.16407572
27	0xbdc07136	-0.09396593
28	0x3c691380	0.014225841
29	0xb63cff14	-2.8162658e-06
30	0x3bfb7d77	0.0076748687
31	0x3dac9001	0.08425904
32	0xbd9a22fd	-0.07526205
33	0xbbb8c67b	-0.005638895
34	0x3be06205	0.0068476223
35	0x3613e2d1	2.2036731e-06
36	0x36307b07	2.6297655e-06
37	0x3ba4ea9e	0.0050328514
38	0x35c80075	1.4901294e-06
39	0x34e09c84	4.1837131e-07
40	0x35a4c981	1.2277598e-06
41	0x34fe0097	4.7311616e-07
42	0xbeaf1876	-0.3419835
43	0xb4bd5d70	-3.5271978e-07
44	0xb8b6da80	-8.719135e-05
45	0x355b47c3	8.1688285e-07
46	0x3684b889	3.9553893e-06
47	0xbde8e76b	-0.113722645
48	0xb490208f	-2.684578e-07
49	0xb580bcb4	-9.591663e-07
50	0x3dc80fb4	0.0976862
51	0xb5f10585	-1.7957506e-06
52	0x3c54de50	0.012992457
53	0x346c6694	2.201653e-07
54	0xbdd9ff89	-0.106444426
55	0xbd1e861b	-0.03870211
56	0x3c082f3e	0.008312045
57	0x3ce2baa1	0.027676882
58	0x3e00b4c8	0.12568963
59	0x357834b9	9.246392e-07
60	0x35ee24cb	1.774309e-06
61	0x35798a18	9.296068e-07
62	0x33e8a0fb	1.0832624e-07
63	0x3c08ff08	0.008361585
64	0xb37b868d	-5.8562865e-08
65	0xb4a79537	-3.1214742e-07
66	0x3569681c	8.6950763e-07
67	0xb41c55ee	-1.4559893e-07
68	0x33859203	6.2198545e-08
69	0xb241d132	-1.1281644e-08
70	0x34b077b1	3.2869642e-07
71	0x33de1aae	1.03425336e-07
72	0xb5297df1	-6.3140675e-07
73	0x3b9a7c35	0.0047145137
74	0xb58b7959	-1.0391624e-06
75	0x3337df58	4.2811138e-08
76	0xb43542ba	-1.6881214e-07
77	0xb459af9b	-2.0273585e-07
78	0x341b72f5	1.4477321e-07
79	0x3e658d91	0.22417285
80	0x350b5829	5.1909825e-07
81	0xb526615e	-6.1981507e-07
82	0xba1c7c68	-0.0005969466
83	0xb599cd6c	-1.1459174e-06
84	0x35af50fd	1.3062087e-06
85	0xb4ff3866	-4.7538487e-07
86	0xb512e0e6	-5.471651e-07
87	0x343073de	1.643343e-07
88	0x3a630c00	0.0008661151
89	0xb44ff588	-1.9367701e-07
90	0xba6c1a24	-0.0009006581
91	0x344c132f	1.900596e-07
92	0x35918fa6	1.0845149e-06
93	0xb3b77807	-8.5434344e-08
94	0x3408c499	1.2737509e-07
95	0x3450cf6f	1.9446973e-07
96	0x36205126	2.3889093e-06
97	0x35e7cd28	1.727055e-06
98	0xb3a47832	-7.6587085e-08
99	0x34d1370e	3.896934e-07
100	0x3509ed90	5.1382176e-07
101	0x35310b51	6.5954106e-07
102	0xb4bc7cb0	-3.510845e-07
103	0xb404a819	-1.2354612e-07
104	0xb3f9abb7	-1.1626201e-07
105	0xb584ada1	-9.885299e-07
106	0xb41c753b	-1.457128e-07
107	0xb4ea4c1c	-4.3641273e-07
108	0xb5acb45c	-1.286749e-06
109	0xb430b20f	-1.6456055e-07
110	0x348685a5	2.5056684e-07
111	0xb5078c75	-5.049581e-07
112	0x34b34604	3.339229e-07
113	0x34827a23	2.4303253e-07
114	0xbb9d48b8	-0.0047999285
115	0xb4fbd543	-4.6907562e-07
116	0xb82cb7e5	-4.117926e-05
117	0x3480f295	2.401836e-07
118	0x3e293ebc	0.16527838
119	0x344f8bfb	1.9329302e-07
120	0x351fb368	5.9493186e-07
121	0x34a85120	3.1351465e-07
122	0xb622004e	-2.4140058e-06
123	0xb3aafc6b	-7.9621564e-08
124	0xb269c7cd	-1.3607814e-08
125	0xb49cca22	-2.9204335e-07
126	0x329bf376	1.8155088e-08
127	0xbba1f9fa	-0.0049431296
128	0xb2dc944f	-2.5678814e-08
129	0xb403bce4	-1.2269044e-07
130	0x361dbcd6	2.350474e-06
131	0x35526e7c	7.839187e-07
132	0x345a0a9e	2.0306695e-07
133	0xb48120f5	-2.4052102e-07
134	0xb302817f	-3.038576e-08
135	0xb38f22cb	-6.665285e-08
136	0x352cc8e5	6.4367333e-07
137	0xbca5aa52	-0.020222817
138	0x360dfc2e	2.1157425e-06
139	0x349d9ad4	2.935618e-07
140	0xb46764e1	-2.1550251e-07
141	0x34c19632	3.6058333e-07
142	0x3338208b	4.2870436e-08
143	0xbb896973	-0.0041934787
144	0x34b03344	3.2819855e-07
145	0xb58ee383	-1.0646039e-06
146	0xb985ee3d	-0.00025545238
147	0xb1aeac94	-5.0836864e-09
148	0xb6a23f60	-4.835354e-06
149	0x34bc8587	3.5114883e-07
150	0xb4f1ecb5	-4.5061975e-07
151	0x34cc6d7c	3.807762e-07
152	0x360dfd47	2.1158064e-06
153	0xb4af7c3c	-3.2686683e-07
154	0x3c5649bd	0.013079104
155	0x362ef271	2.606914e-06
156	0xb62cb4fa	-2.573534e-06
157	0xb403b255	-1.2265203e-07
158	0x35c1cf23	1.4439905e-06
159	0xb5833926	-9.776893e-07
160	0x36daf3e4	6.525299e-06
161	0x34c84c08	3.7308223e-07
162	0xb3bb4d37	-8.7219114e-08
163	0xb0961495	-1.0919786e-09
164	0x331477c2	3.4567854e-08
165	0xb562c96d	-8.4484674e-07
166	0xb4d00701	-3.8748115e-07
167	0xb4420076	-1.8067826e-07
168	0xb48750b9	-2.5204443e-07
169	0xb53e9482	-7.0996623e-07
170	0xbc21017d	-0.009827015
171	0xb3524554	-4.895749e-08
172	0x35c3953c	1.4572065e-06
173	0xb44edd58	-1.926577e-07
174	0xb3f38d03	-1.1341219e-07
175	0x38dbc5af	0.00010479555
176	0xb478ec0c	-2.3182673e-07
177	0xb4253f7f	-1.5389922e-07
178	0x3b8ad04f	0.004236258
179	0x33d7cf37	1.004941e-07
180	0xb54783e9	-7.432523e-07
181	0xb177c861	-3.6057133e-09
182	0x3a97c634	0.0011579455
183	0xb6062a2c	-1.9992103e-06
184	0x3582cb35	9.744896e-07
185	0xb58cfa1a	-1.0503602e-06
186	0x36240f7a	2.4446913e-06
187	0xb3b99809	-8.642389e-08
188	0xb5e30e76	-1.6917027e-06
189	0x34129342	1.3650882e-07
190	0xb2ccef88	-2.3857652e-08
191	0x3a52dd6c	0.00080438587
192	0xb5475ea5	-7.4271003e-07
193	0xb4c8d670	-3.7408927e-07
194	0xb8d665d8	-0.00010223285
195	0xb44d1988	-1.9101401e-07
196	0xb51c7b57	-5.829401e-07
197	0x34184155	1.4179871e-07
198	0x332fa2cb	4.0893422e-08
199	0x342ad937	1.5911506e-07
200	0x3c184157	0.009292922
201	0x3bb8728c	0.0056288894
202	0xbde1e0a4	-0.11029175
203	0x3461cfa8	2.1030303e-07
204	0x350f1d4f	5.33143e-07
205	0x34ba664b	3.4719628e-07
206	0x32bf0dc8	2.2241593e-08
207	0x3c1385b0	0.009004042
208	0x34180a18	1.4159775e-07
209	0x3bfb1295	0.0076621273
210	0xba821b84	-0.0009926413
211	0xb43732f1	-1.7061735e-07
212	0x3c86675a	0.016406704
213	0xbc471fad	-0.012153548
214	0xbb6876fc	-0.003547131
215	0xb4f676bf	-4.590747e-07
216	0x3c3fab7b	0.011698599
217	0x33d2cb94	9.815918e-08
218	0xbd3c41c5	-0.04596116
219	0xbb612f68	-0.0034360532
220	0x3a7c8315	0.000963257
221	0xb4dfb43e	-4.166813e-07
222	0x3ce54499	0.027986811
223	0xbb7368c1	-0.0037141296
224	0x3d253c0a	0.04034046
225	0xbb115baa	-0.002217988
226	0x33cd3744	9.556109e-08
227	0xb49c4575	-2.91078e-07
228	0x356f54e5	8.9157976e-07
229	0x3c27e867	0.01024828
230	0x3c502fb5	0.012706687
231	0x34c71443	3.708138e-07
232	0xb499098c	-2.8505417e-07
233	0xb214c3c0	-8.659242e-09
234	0x398484f1	0.0002527605
235	0xb410ccce	-1.3485553e-07
236	0xb5a2c232	-1.2126459e-06
237	0x3588972f	1.017679e-06
238	0xb60695b3	-2.0054692e-06
239	0x3c17b1f4	0.009258736
240	0xb390e8f6	-6.747898e-08
241	0xb4f3e912	-4.5431858e-07
242	0xbc2c7c59	-0.010527694
243	0x33ad1a76	8.0607535e-08
244	0xbaf4981c	-0.0018661055
245	0xb4a1e8d8	-3.0158003e-07
246	0x3e4442c8	0.191661
247	0x3c35b68f	0.011090889
248	0x3b14118f	0.0022593474
249	0x3657b532	3.2142966e-06
250	0xbc963d15	-0.018339673
251	0xb388799a	-6.355113e-08
252	0xb4884fbc	-2.5389988e-07
253	0x336834f3	5.4064866e-08
254	0x32eb03ef	2.735939e-08
255	0xbd19d11f	-0.03755295

weight_hh_l1 f4 [256, 64]
0	0xbcc3ea65	-0.023915479
1	0x3ad0561f	0.0015894807
2	0x3cb48d6c	0.022040091
3	0x3b8d4640	0.004311353
4	0x3b986b04	0.004651429
5	0xbc04dbcf	-0.008109047
6	0xb40827ad	-1.2680421e-07
7	0x367351ef	3.6257513e-06
8	0xb4a72601	-3.1133825e-07
9	0xbcc405e6	-0.023928594
10	0x33d6b5d5	9.9982266e-08
11	0x34aeb737	3.2543332e-07
12	0xb6396a3e	-2.762899e-06
13	0xb4b3d07a	-3.3493035e-07
14	0x3c0c2b54	0.008555252
15	0xbbe07eaa	-0.006851037
16	0x3c9ab279	0.01888393
17	0xb60b67bf	-2.0773002e-06
18	0xb6448b21	-2.928726e-06
19	0xb45cfe0d	-2.058152e-07
20	0xb312fcde	-3.4223255e-08
21	0x35225d0f	6.048512e-07
22	0xb4873ec7	-2.5191386e-07
23	0x35d4a948	1.5844498e-06
24	0x3c07e270	0.008293733
25	0xbc089cee	-0.008338196
26	0x3521c41e	6.026256e-07
27	0x397d3443	0.00024147429
28	0x3d09f0ac	0.03367679
29	0xb5b298cc	-1.3306503e-06
30	0x34fb1387	4.67666e-07
31	0xb45c4393	-2.051368e-07
32	0x3692d816	4.376295e-06
33	0x3d96aa94	0.07356754
34	0x33fe69f6	1.1847071e-07
35	0xbd08f176	-0.0334334
36	0x3ca3fdbc	0.02001845
37	0xb5d6cc05	-1.600362e-06
38	0x361f0a5b	2.3698874e-06
39	0x3c22b6ef	0.00993131
40	0x3cf25055	0.02957932
41	0xb4879d21	-2.5260036e-07
42	0xbc02dcf6	-0.0079872515
43	0xb45352bf	-1.9681009e-07
44	0xbbf250df	-0.0073948945
45	0xb99b2517	-0.00029591538
46	0xb5d6ae5b	-1.5994987e-06
47	0xb55bf609	-8.1941886e-07
48	0x361ae365	2.308015e-06
49	0xbcc9e383	-0.024644619
50	0x3c9bba9a	0.019009877
51	0x34dd04f3	4.116806e-07
52	0xbba3fbc7	-0.0050043794
53	0x3ab33360	0.0013671927
54	0xb83ae845	-4.4562174e-05
55	0xb581f43d	-9.682332e-07
56	0xbd1906e6	-0.037360094
57	0x3643d58d	2.9181567e-06
58	0xbd2b1a74	-0.041773275
59	0xbb97cba4	-0.00463243
60	0x3cc371a5	0.0238579
61	0xbd39de98	-0.045378298
62	0xb5e5c1dc	-1.711825e-06
63	0x34fbf471	4.6930248e-07
64	0xb6a1a4c9	-4.8173574e-06
65	0x35699c9a	8.702715e-07
66	0x3468ff5d	2.1699584e-07
67	0xb386ac0c	-6.2711564e-08
68	0x3cba6db4	0.022757389
69	0xba0ce121	-0.0005374123
70	0x340f5d3c	1.3351831e-07
71	0x342ae738	1.59166e-07
72	0xb4f3f7fb	-4.5442707e-07
73	0xbba852d3	-0.0051368265
74	0xb3fe16b5	-1.1831927e-07
75	0xb44cc4d9	-1.9070593e-07
76	0x33d29fff	9.80799e-08
77	0xb2937dfd	-1.7170345e-08
78	0x3aa61e5b	0.0012673842
79	0x362bbc58	2.5590616e-06
80	0x3c7cdf42	0.015434088
81	0x345970bb	2.0250711e-07
82	0xb3125456	-3.4069977e-08
83	0xb451a268	-1.9523725e-07
84	0xb494f084	-2.7742146e-07
85	0xb3f9b051	-1.1627038e-07
86	0xb4e1a44b	-4.2029055e-07
87	0xb33334ce	-4.172471e-08
88	0x34edb619	4.4277184e-07
89	0x363f750c	2.8529348e-06
90	0xb441ea7c	-1.805983e-07
91	0x33a8cae1	7.860013e-08
92	0x3d6e1281	0.058123115
93	0xb37b3708	-5.8490542e-08
94	0x330233c6	3.031507e-08
95	0x340df31e	1.3220094e-07
96	0x32346232	1.0499706e-08
97	0x3bda5228	0.006662626
98	0xb4143bd1	-1.3805335e-07
99	0xb6a0a389	-4.7874096e-06
100	0x34a31d73	3.0382543e-07
101	0x3402177a	1.2115734e-07
102	0x34ffa55b	4.7617763e-07
103	0xb5101a90	-5.3682834e-07
104	0x3bbae9ba	0.005704132
105	0x3407762f	1.261585e-07
106	0x321d9d18	9.174322e-09
107	0xb455ce0e	-1.9912133e-07
108	0xb9d7eeff	-0.00041186062
109	0x33e911e7	1.08531644e-07
110	0x34b39aad	3.345389e-07
111	0xb503368b	-4.8880673e-07
112	0x3488b4c0	2.5463487e-07
113	0x3b3fc42d	0.0029261217
114	0x33d2ab80	9.810083e-08
115	0x35321eb2	6.6354835e-07
116	0x358e1909	1.0587111e-06
117	0x36d38302	6.3035413e-06
118	0x3491a6da	2.7129755e-07
119	0x3337f944	4.2834714e-08
120	0xbe6caeee	-0.23113605
121	0xb34d137a	-4.7747996e-08
122	0xbc8f43cd	-0.017488385
123	0x34f2fcb1	4.525987e-07
124	0x3bdc0914	0.0067149494
125	0xb59c8163	-1.1660562e-06
126	0x3592094a	1.0880551e-06
127	0x35169ac2	5.6104557e-07
128	0x3b3a1267	0.0028392316
129	0xb5867247	-1.0017037e-06
130	0x311624f7	2.1848885e-09
131	0x36852db8	3.9690312e-06
132	0x3d3eafa7	0.046554234
133	0x35d1e624	1.5638693e-06
134	0xb494c4b8	-2.771028e-07
135	0x36053f44	1.985537e-06
136	0x33d651f6	9.98006e-08
137	0xbd849e55	-0.06475512
138	0x340ad891	1.2931038e-07
139	0x342349e0	1.5207434e-07
140	0x34dc85e5	4.1075614e-07
141	0x3395f18c	6.98229e-08
142	0x3bf761a5	0.007549482
143	0x3cb60614	0.022219695
144	0xbb2d7958	-0.0026470032
145	0x34e228b2	4.212539e-07
146	0x34d3700c	3.9383337e-07
147	0xb467fa4f	-2.1604613e-07
148	0x3471ef17	2.2531854e-07
149	0x34adad2d	3.2349763e-07
150	0x34d882aa	4.0328206e-07
151	0xb445adca	-1.8410279e-07
152	0xb4ab6737	-3.192633e-07
153	0xba154991	-0.0005694861
154	0x338cf900	6.564551e-08
155	0x358e7713	1.061448e-06
156	0x3c43b672	0.011945354
157	0xb328ae20	-3.9273914e-08
158	0x340ebc9f	1.32934e-07
159	0xb3780a09	-5.7751127e-08
160	0xb52c2baa	-6.413853e-07
161	0xbccd0317	-0.025025887
162	0xb072b5b8	-8.8297325e-10
163	0x38447c08	4.6845555e-05
164	0xb8a92678	-8.065713e-05
165	0x34bd7d3d	3.5295116e-07
166	0xb49ad928	-2.8842737e-07
167	0xb5a0e270	-1.1986831e-06
168	0xbe09902e	-0.13433906
169	0xb4d21a7b	-3.9134815e-07
170	0x3497d9ca	2.8284404e-07
171	0x32bd8b0f	2.2065732e-08
172	0x37cb2a75	2.4219256e-05
173	0x349d56ad	2.9306594e-07
174	0xb40e81b9	-1.3271973e-07
175	0xb43f1270	-1.7794969e-07
176	0x34acb7f1	3.2171332e-07
177	0x38f81e21	0.000118311735
178	0x346a0e94	2.1798252e-07
179	0xb4bd1814	-3.5221512e-07
180	0xb8304a1e	-4.2030697e-05
181	0x3b0c6ff0	0.0021429025
182	0xb43ef683	-1.778481e-07
183	0x339749ea	7.04493e-08
184	0xbdf13318	-0.117773235
185	0x33fc3696	1.17445936e-07
186	0x398731fe	0.00025786454
187	0xb598a967	-1.1374185e-06
188	0xb8452f4d	-4.7012512e-05
189	0xb58ad53e	-1.0343863e-06
190	0x3574e12d	9.122476e-07
191	0xb4ebd8d2	-4.3929919e-07
192	0x3af2370f	0.0018479544
193	0x3b0f4e90	0.0021866895
194	0x3c3b44b7	0.011429957
195	0x3c3df495	0.011593957
196	0xbde8d2a7	-0.11368304
197	0xbd100021	-0.035156373
198	0x348dd363	2.64171e-07
199	0x39336330	0.0001710772
200	0x33c703a2	9.2673204e-08
201	0xbdc91d95	-0.098200954
202	0x34481227	1.8633055e-07
203	0xb58af4c8	-1.0353042e-06
204	0x35c8e2cb	1.4967167e-06
205	0x350055d0	4.780859e-07
206	0x3dbba576	0.091624185
207	0xbc5d6e38	-0.013515048
208	0x3c6900c6	0.014221376
209	0xb2cc92f9	-2.3815561e-08
210	0x33227b58	3.7830745e-08
211	0x34e32a23	4.2312703e-07
212	0x35d26e13	1.5678255e-06
213	0xb5b25c56	-1.3288907e-06
214	0x34d49e9c	3.960348e-07
215	0x3b61768e	0.003440294
216	0xbbbee27e	-0.00582534
217	0xbbf05bf4	-0.0073351804
218	0x34586503	2.0153315e-07
219	0x3b4b7864	0.00310471
220	0x3d014729	0.031562004
221	0xb5db8d2a	-1.6357856e-06
222	0x32b42528	2.0971655e-08
223	0xb3433740	-4.5452225e-08
224	0xb414e4f6	-1.386687e-07
225	0xbcc31630	-0.02381429
226	0xb4c87211	-3.7335897e-07
227	0xbc2ae434	-0.010430384
228	0x3a8895e8	0.0010420652
229	0xb55c80f6	-8.214405e-07
230	0xb28568cd	-1.5530896e-08
231	0x3c838169	0.016052919
232	0x3c96d4ab	0.018411955
233	0x3498671e	2.8387234e-07
234	0xbc98e4fb	-0.018663874
235	0x31a7258e	4.864609e-09
236	0xbc7f0ab2	-0.015566515
237	0xb5995fc4	-1.142726e-06
238	0xbafe9f83	-0.00194262
239	0xb5611b9c	-8.385921e-07
240	0x349f3079	2.9651326e-07
241	0xbccae5a6	-0.024767708
242	0xbb5322fe	-0.0032216902
243	0xb5a3c78e	-1.2202524e-06
244	0xbaf2935f	-0.0018507055
245	0x3d42efd1	0.047591988
246	0xb62c1480	-2.564193e-06
247	0x35834528	9.780388e-07
248	0xbc87662e	-0.016528215
249	0x3541c06e	7.2178125e-07
250	0x3c14d19a	0.009083176
251	0x3604dead	1.9799147e-06
252	0x3d56243d	0.052280653
253	0xbcd19814	-0.025585212
254	0xbbaf8317	-0.0053562033
255	0xb5c8b202	-1.4952968e-06
