vehicle/autoware_raw_vehicle_cmd_converter/src/vehicle_adaptor/autoware_vehicle_adaptor/inputs_schedule_prediction_model/steer_schedule_predictor.pth (torch, 439366 bytes, 25 tensors)

input_transition_matrix f4 [15, 15]
00000000: 0000 0000 0000 0000 0000 0000 0000 0000
00000010: 0000 0000 0000 0000 0000 0000 0000 0000
00000020: 0000 0000 0000 0000 0000 0000 0000 0000
00000030: 0000 0000 0000 0000 0000 0000 0000 803f
00000040: 0000 0000 0000 0000 0000 0000 0000 0000
00000050: 0000 0000 0000 0000 0000 0000 0000 0000
00000060: 0000 0000 0000 0000 0000 0000 0000 0000
00000070: 0000 0000 0000 0000 0000 0000 0000 803f
00000080: 0000 0000 0000 0000 0000 0000 0000 0000
00000090: 0000 0000 0000 0000 0000 0000 0000 0000
000000a0: 0000 0000 0000 0000 0000 0000 0000 0000
000000b0: 0000 0000 0000 0000 0000 0000 0000 803f
000000c0: 0000 0000 0000 0000 0000 0000 0000 0000
000000d0: 0000 0000 0000 0000 0000 0000 0000 0000
000000e0: 0000 0000 0000 0000 0000 0000 0000 0000
000000f0: 0000 0000 0000 0000 0000 0000 0000 803f
00000100: 0000 0000 0000 0000 0000 0000 0000 0000
00000110: 0000 0000 0000 0000 0000 0000 0000 0000
00000120: 0000 0000 0000 0000 0000 0000 0000 0000
00000130: 0000 0000 0000 0000 0000 0000 0000 803f
00000140: 0000 0000 0000 0000 0000 0000 0000 0000
00000150: 0000 0000 0000 0000 0000 0000 0000 0000
00000160: 0000 0000 0000 0000 0000 0000 0000 0000
00000170: 0000 0000 0000 0000 0000 0000 0000 803f
00000180: 0000 0000 0000 0000 0000 0000 0000 0000
00000190: 0000 0000 0000 0000 0000 0000 0000 0000
000001a0: 0000 0000 0000 0000 0000 0000 0000 0000
000001b0: 0000 0000 0000 0000 0000 0000 0000 803f
000001c0: 0000 0000 0000 0000 0000 0000 0000 0000
000001d0: 0000 0000 0000 0000 0000 0000 0000 0000
000001e0: 0000 0000 0000 0000 0000 0000 0000 0000
000001f0: 0000 0000 0000 0000 0000 0000 0000 803f
00000200: 0000 0000 0000 0000 0000 0000 0000 0000
00000210: 0000 0000 0000 0000 0000 0000 0000 0000
00000220: 0000 0000 0000 0000 0000 0000 0000 0000
00000230: 0000 0000 0000 0000 0000 0000 0000 803f
00000240: 0000 0000 0000 0000 0000 0000 0000 0000
00000250: 0000 0000 0000 0000 0000 0000 0000 0000
00000260: 0000 0000 0000 0000 0000 0000 0000 0000
00000270: 0000 0000 0000 0000 0000 0000 0000 803f
00000280: 0000 0000 0000 0000 0000 0000 0000 0000
00000290: 0000 0000 0000 0000 0000 0000 0000 0000
000002a0: 0000 0000 0000 0000 0000 0000 0000 0000
000002b0: 0000 0000 0000 0000 0000 0000 0000 803f
000002c0: 0000 0000 0000 0000 0000 0000 0000 0000
000002d0: 0000 0000 0000 0000 0000 0000 0000 0000
000002e0: 0000 0000 0000 0000 0000 0000 0000 0000
000002f0: 0000 0000 0000 0000 0000 0000 0000 803f
00000300: 0000 0000 0000 0000 0000 0000 0000 0000
00000310: 0000 0000 0000 0000 0000 0000 0000 0000
00000320: 0000 0000 0000 0000 0000 0000 0000 0000
00000330: 0000 0000 0000 0000 0000 0000 0000 803f
00000340: 0000 0000 0000 0000 0000 0000 0000 0000
00000350: 0000 0000 0000 0000 0000 0000 0000 0000
00000360: 0000 0000 0000 0000 0000 0000 0000 0000
00000370: 0000 0000 0000 0000 0000 0000 0000 803f
00000380: 0000 803f
0.0 0.0 0.0 0.0 0.0 0.0 0.0 0.0
0.0 0.0 0.0 0.0 0.0 0.0 0.0 1.0
0.0 0.0 0.0 0.0 0.0 0.0 0.0 0.0
0.0 0.0 0.0 0.0 0.0 0.0 0.0 1.0
0.0 0.0 0.0 0.0 0.0 0.0 0.0 0.0
0.0 0.0 0.0 0.0 0.0 0.0 0.0 1.0
0.0 0.0 0.0 0.0 0.0 0.0 0.0 0.0
0.0 0.0 0.0 0.0 0.0 0.0 0.0 1.0
0.0 0.0 0.0 0.0 0.0 0.0 0.0 0.0
0.0 0.0 0.0 0.0 0.0 0.0 0.0 1.0
0.0 0.0 0.0 0.0 0.0 0.0 0.0 0.0
0.0 0.0 0.0 0.0 0.0 0.0 0.0 1.0
0.0 0.0 0.0 0.0 0.0 0.0 0.0 0.0
0.0 0.0 0.0 0.0 0.0 0.0 0.0 1.0
0.0 0.0 0.0 0.0 0.0 0.0 0.0 0.0
0.0 0.0 0.0 0.0 0.0 0.0 0.0 1.0
0.0 0.0 0.0 0.0 0.0 0.0 0.0 0.0
0.0 0.0 0.0 0.0 0.0 0.0 0.0 1.0
0.0 0.0 0.0 0.0 0.0 0.0 0.0 0.0
0.0 0.0 0.0 0.0 0.0 0.0 0.0 1.0
0.0 0.0 0.0 0.0 0.0 0.0 0.0 0.0
0.0 0.0 0.0 0.0 0.0 0.0 0.0 1.0
0.0 0.0 0.0 0.0 0.0 0.0 0.0 0.0
0.0 0.0 0.0 0.0 0.0 0.0 0.0 1.0
0.0 0.0 0.0 0.0 0.0 0.0 0.0 0.0
0.0 0.0 0.0 0.0 0.0 0.0 0.0 1.0
0.0 0.0 0.0 0.0 0.0 0.0 0.0 0.0
0.0 0.0 0.0 0.0 0.0 0.0 0.0 1.0
1.0

add_new_input f4 [1, 15]
00000000: 0000 0000 0000 0000 0000 0000 0000 0000
00000010: 0000 0000 0000 0000 0000 0000 0000 0000
00000020: 0000 0000 0000 0000 0000 0000 0000 0000
00000030: 0000 0000 0000 0000 0000 803f
0.0 0.0 0.0 0.0 0.0 0.0 0.0 0.0
0.0 0.0 0.0 0.0 0.0 0.0 1.0

weight_ih_l0 f4 [256, 2]
00000000: ece6 a6be 1707 203d e358 35be 558c 87bb
00000010: f117 08be 5ada 18be 905b 05bd 942a cfb2
00000020: 2198 35bd a55d aebc f43d 8ebe 01db dd32
00000030: 16d9 203e 65c1 0c3c b013 bfbe 4c99 dc33
00000040: 0a66 13bf 9fd6 263d 9a78 a1b2 ad9f 6632
00000050: 4d83 8dbe 545b 7bb3 64a9 c93e 71d9 103f
00000060: a3d4 3833 af47 022f bb5e 99b2 d0b6 aa32
00000070: 0d04 c13e b62a a6be b2bc 443d 714d 30be
00000080: 8b3d af33 a046 4033 5576 df30 2da4 d331
00000090: 7fcc b4be 4953 ea32 154e 9fbe 99e6 6ab2
000000a0: 8fc7 c2be af48 143a 4032 88be c762 21b4
000000b0: 4621 7bbe b107 b032 d693 7fbe 21c3 d13c
000000c0: 24d0 23bf 74a8 47b1 d581 e8be e6c3 b6bd
000000d0: 49cc 66b1 c0ec ee32 e138 023e f872 893d
000000e0: 2993 0ebf bdd6 8f36 9dcc d5bd c317 8e3c
000000f0: a7de 2dbe 9643 9833 c7bd febe bdee 5d33
00000100: 1294 45bf cd1b 3e35 44c3 8bbc 20aa d03d
00000110: 8fd2 83bd 9ba3 f53a 104d 1833 c260 7432
00000120: eefb 323b c6fe 343e 6e6a 31be b6ff a4b6
00000130: 9f69 0834 cf6d 01b2 af1a 84be bc38 843e
00000140: 6b9b 9cbe 6f07 3bb3 5463 6ebd a326 02b9
00000150: dd49 fbbe 7ff3 eb3d dda5 063e c832 b0bd
00000160: dfaf ffbe 35c4 d2b3 bcf7 8fbe 5062 d9b1
00000170: 0ae1 51bf f29b 123e a955 a2be b4c8 af33
00000180: 0692 bbbd 5186 90bd bc57 f9bc eed9 c5bd
00000190: 4a81 2bbe 3213 c0b3 ed0c 4cbe 1120 da3c
000001a0: bf96 c8bc 970e b83d 98b1 ffbe dc36 bb38
000001b0: e071 3bbd afee 1f3f a4e3 8b34 29c8 b8b2
000001c0: a70d 65be f418 5cb9 8525 2632 aa2b 8e32
000001d0: 9a34 4dbd 59c4 fa3a a4e4 75be 690e e33e
000001e0: 62fa f3be 40e5 2333 53c2 cabd 3016 0dbe
000001f0: 0293 ccbe 0b39 5cb6 7724 b3be 6e6c 8431
00000200: 7703 7cbe 0c7d 9838 084e 29be c1d9 9aba
00000210: 433a 33be ada6 3bbe 7c3d ad36 5c15 02b3
00000220: a5a4 253c f09f 12b9 ba4c c2bd 77a8 6032
00000230: 301a 883e 9687 7c3d f7fa f438 37d4 7db3
00000240: 2091 b4be 1efd dc37 5b46 1f32 ff50 6532
00000250: 3122 8731 6b31 bdb2 e13c a33e b004 423f
00000260: bb96 3832 089b e8b1 eb41 4133 430f 4832
00000270: 81e4 b93e df66 b7be 5b9f 0d3d fb96 84be
00000280: 6704 d733 0a41 8433 bf3b 41b1 221d 1a33
00000290: c7bd eb35 23b7 ad30 7dd2 7dbe 0c7c a032
000002a0: f7fd 75be 2f4f 2839 fbad 2e34 3266 d5b2
000002b0: 86c5 90b3 efe0 29b1 6828 44be e506 083d
000002c0: 30af afb3 cf8d e732 0d91 6cbe 6b56 02be
000002d0: 93d5 e6b1 785f 1d33 6e4a 1f3f 09f3 1c3e
000002e0: d690 7abe 4f33 f532 9d61 4e39 684f 5638
000002f0: a39b 27b3 116b 6533 a28b ecbd 8bea 9132
00000300: 9024 2dbe be0e a232 48f2 1a3d 3bcb 6e3e
00000310: 5850 d338 2710 a43a 7ffd b6b2 9a5e a3b2
00000320: 01a2 083d 8d11 fe3d 39dd bbbd b838 57b5
00000330: 1d97 0034 6e55 5533 54f8 a0be e0af 613e
00000340: 0bcf 8cb2 d64f ab31 427d c1bb a887 ffba
00000350: 0f70 a5be fc3e f73d da70 153d 3250 e7bd
00000360: b5d0 5f33 caa8 4db4 a807 6f3a 75b2 ab2c
00000370: 412e 18bf 329e fb39 0f7b 4dbe bc80 5634
00000380: 9cd3 1cbe c88a 8cbd d31d 28ba 99c4 edbd
00000390: 24f1 22bc b296 4133 3c6e 05be 328d 8bbb
000003a0: 46df 21bb e223 b2b8 97cf aebe a38e 5ab3
000003b0: d46d 2dbd 26d8 383f 0eab a832 a3d7 3133
000003c0: f29d 8dbe 31f6 0634 6cc9 1f32 902e edb2
000003d0: 0478 aa3c 3ed9 aa3c 3834 42be 44c4 d53e
000003e0: 8de3 96bd 6bd9 66b3 9e1e 8fbd 53e7 0dbe
000003f0: c956 ac31 256b 7fb3 13ce ffb2 0151 75b3
-0.32598054 0.03906926 -0.17709689 -0.004136602 -0.13290383 -0.14927045 -0.032558024 -2.4117334e-08
-0.044334535 -0.021284888 -0.2778164 2.5827378e-08 0.15707812 0.008591031 -0.37319708 1.0272433e-07
-0.57577574 0.040732022 -1.879771e-08 1.3424068e-08 -0.27639237 -5.8523554e-08 0.39387047 0.5658179
4.303423e-08 1.1848898e-10 -1.7854623e-08 1.9873738e-08 0.37698403 -0.3245446 0.048031516 -0.17217042
8.160267e-08 4.4767717e-08 1.6259017e-09 6.159573e-09 -0.35312268 2.7279059e-08 -0.3111426 -1.36730245e-08
-0.38042876 0.00056565827 -0.26600838 -1.5030228e-07 -0.24524412 2.0492594e-08 -0.24958739 0.02560574
-0.6398947 -2.9054066e-09 -0.45411554 -0.089240834 -3.3585528e-09 2.7814508e-08 0.1271701 0.06711382
-0.556933 4.286731e-06 -0.104394175 0.017345315 -0.16979466 7.0903454e-08 -0.49754164 5.1672703e-08
-0.7717906 7.082097e-07 -0.017060883 0.10188699 -0.06436645 0.0018740775 3.5460346e-08 1.4224669e-08
0.0027310806 0.17675313 -0.17325756 -4.9173495e-06 1.2704412e-07 -7.533756e-09 -0.25801608 0.25824535
-0.30587325 -4.354609e-08 -0.058200195 -0.0001241216 -0.4907979 0.115210526 0.1314921 -0.08603436
-0.49938866 -9.814577e-08 -0.28118694 -6.326708e-09 -0.8198401 0.14317301 -0.3170598 8.18558e-08
-0.09158711 -0.07056869 -0.030437343 -0.096607074 -0.16748539 -8.944188e-08 -0.19926806 0.026626619
-0.024485944 0.08987158 -0.4994018 8.927073e-05 -0.045762897 0.6247358 2.6056398e-07 -2.1511442e-08
-0.22368489 -0.0002099013 9.671003e-09 1.6550832e-08 -0.050098993 0.0019132002 -0.24013 0.44346932
-0.47651964 3.8159897e-08 -0.09900346 -0.13777995 -0.39955908 -3.2815758e-06 -0.34988758 3.8540326e-09
-0.24610697 7.2712166e-05 -0.16533673 -0.0011814163 -0.17502694 -0.183253 5.1629595e-06 -3.028741e-08
0.010110055 -0.00013983226 -0.09487291 1.30768205e-08 0.2658248 0.061652742 0.000116815725 -5.909916e-08
-0.35266972 2.634391e-05 9.271015e-09 1.3347971e-08 3.9329042e-09 -2.2024969e-08 0.31882384 0.757884
1.0744482e-08 -6.7697137e-09 4.4996266e-08 1.1645002e-08 0.36307147 -0.35820672 0.0345758 -0.2589644
1.00125185e-07 6.1585595e-08 -2.8119158e-09 3.5882415e-08 1.7564097e-06 1.2639457e-09 -0.24787326 1.8682861e-08
-0.24022661 0.00016051227 1.6268307e-07 -2.4842937e-08 -6.741452e-08 -2.4720597e-09 -0.19156039 0.0332097
-8.180939e-08 2.6956426e-08 -0.23102207 -0.12728278 -6.7181616e-09 3.664124e-08 0.62222946 0.15327086
-0.24469313 2.8545086e-08 0.00019682055 5.109553e-05 -3.902427e-08 5.3415594e-08 -0.1155007 1.698688e-08
-0.16908479 1.8865986e-08 0.037828714 0.23319714 0.00010076229 0.0012517021 -2.1302865e-08 -1.9018717e-08
0.033357624 0.12405691 -0.09173054 -8.017628e-07 1.1975904e-07 4.9670625e-08 -0.3143946 0.22039747
-1.6392297e-08 4.9858313e-09 -0.0059048245 -0.0019495385 -0.32312056 0.1207256 0.036484577 -0.11294593
5.211105e-08 -1.9153518e-07 0.00091182673 4.879925e-12 -0.5944558 0.00047992315 -0.20066474 1.9977136e-07
-0.15315098 -0.06862408 -0.00064131356 -0.11609764 -0.009945188 4.507337e-08 -0.13030332 -0.004258775
-0.0024699732 -8.494385e-05 -0.34142753 -5.0886808e-08 -0.04234107 0.72204816 1.963556e-08 4.1407144e-08
-0.27659565 1.2569286e-07 9.300816e-09 -2.7611605e-08 0.020809181 0.020855542 -0.18965232 0.417513
-0.073676206 -5.374879e-08 -0.06988262 -0.13857774 5.015725e-09 -5.946926e-08 -2.9779619e-08 -5.711718e-08

weight_hh_l0 f4 [256, 64]
00000000: 7571 9838 4d4e d536 921a 5738 0a52 8233
00000010: 5ec8 ed3c b99f b0b1 c042 6a3e ee8f d936
00000020: 073b 0138 3a0a d932 182f 0831 08ab a33e
00000030: ecf3 8e33 70ab 5932 b3d2 75be 7e56 4e3a
00000040: e318 cf32 c332 68b1 2066 6f33 a8e0 4eb1
00000050: 97d3 1eb7 51de bab3 1c79 e832 602a 94bd
00000060: 4486 b732 83c1 3bbe c2e1 a3b3 c78f 21bd
00000070: ceb3 2234 6b29 e038 823f 2db1 b9ea eb31
00000080: 37f5 8332 f4fb b63d 7e25 7d37 57a5 54b3
00000090: 8877 c6b5 4d15 22b7 84e1 a536 33bf 7c39
000000a0: 210d 11b3 dd62 0334 2141 f3ba c849 cfb3
000000b0: 52b4 61b3 1254 fa32 aa1d 01b4 9432 a833
000000c0: 1d7b 413b ccf0 a432 9d91 06b4 a9ee 34bc
000000d0: 06e4 d032 a71c 0f36 e831 dcbd c262 4bb3
000000e0: ceab 5336 4459 db32 0e5d 393e 5b3c 3fb6
000000f0: fa61 67b3 7f2a 0ab4 1754 8ab1 0401 4833
00000100: efa9 1436 78fc b5b9 c83f c133 7f5a 3f34
00000110: b06d daba f26c c433 7ea1 32bc 6a22 bcb3
00000120: 5c3e f833 9a99 29ae c85f 85b2 7417 55bd
00000130: a3ef 9fb2 9528 4cb2 0f8e 073c 547e f63b
00000140: 80f3 03b4 9734 0c32 4886 2ab4 c27b f1b3
00000150: 8443 9eb3 3d62 0634 1db0 9e33 8ae2 c53c
00000160: cca8 2b33 32dd a7bd 49aa fe33 1f75 243e
00000170: 8229 b531 c134 7fb3 e69a 2933 1911 0fb3
00000180: 4ffb 4432 a197 993a 58c6 3933 d0e0 eb32
00000190: 7852 863a f73f 99b3 a413 94b3 d2a0 42ba
000001a0: 51d3 a0b2 9979 0c34 6fd3 e2b7 9863 15bc
000001b0: c6da 1a33 d84a 1fb4 9486 87b3 8c66 0d34
000001c0: fcfc 8838 bd0c a4bb 1082 0334 2846 1ab4
000001d0: 501c 2034 6794 35b3 0bec 50b8 922f cab3
000001e0: 1ba6 41b2 9790 bb31 1a93 dfbb 4fb7 c033
000001f0: 1e4e f733 0abe 5eb4 392f e5b2 aa10 eeb3
00000200: 0d95 6b34 1554 0e38 a5dd 6333 1769 beb2
00000210: 3414 1d32 92cf 34b2 52b5 c13d 7eb1 0933
00000220: a6d2 3eb2 2aed b231 eeb5 2332 b2c2 3f3d
00000230: d15c 47b2 9243 7bb2 0195 abbc ba08 4834
00000240: 49b3 44b3 53dd 1f33 7d81 a4b3 ed13 08b4
00000250: 9a33 2b33 4df0 3cb3 3def b832 b68e b5bd
00000260: d8ec 9bb2 cec5 f4b8 89f0 e132 222d eb3e
00000270: 4a20 6133 09d8 e8b3 6e87 29b1 46aa 28b3
00000280: 0b39 c72f 660f 4b3d 7b27 d8b2 1b6e be31
00000290: 472a 40bb d5b1 ab33 5fdb 0833 cd37 8fb4
000002a0: 51d4 d0b0 5d6f 8933 5046 c0b3 e323 263c
000002b0: 1049 db32 c62b 03b4 68c0 5e32 a01c abb2
000002c0: 3662 8832 e024 f7b3 71b2 6f33 86af 50b2
000002d0: ec08 87b3 c25e 2231 cbb2 feb8 0706 05b3
000002e0: 4357 12b3 4b8d 39b1 d1b3 8a3d 0be7 a5b2
000002f0: 5096 d632 f769 7bb4 5839 6cb2 f434 1533
00000300: f675 5433 8fc7 82b2 4b8c 1532 87f6 33b2
00000310: 4ccd 6732 073b 2c32 80f4 9232 bff6 1133
00000320: edd1 8332 75db fbaf 8a28 27b2 8944 20b9
00000330: e279 f3b1 30d5 13b3 327c ef37 1f30 03b4
00000340: 21b9 b2af f741 a832 0ca1 0a32 2ddd 4c33
00000350: d875 4432 1658 e5b1 eb7c 4c32 45af 05b2
00000360: 4d01 4a32 a565 8433 296d 1f32 3347 7a3d
00000370: 9607 9132 2f47 b3b2 7823 1133 ca12 b5b2
00000380: 4911 bf30 2eca b635 1095 37b0 f224 b331
00000390: 6f61 86b3 7c07 6032 e580 3733 4d2a 70b3
000003a0: 0f41 c3b1 c0d4 80b3 849b 1bb3 046e a332
000003b0: 2083 c8b2 3efd f532 4209 42b0 173e 54b0
000003c0: 35df 3cb3 83bd b130 e38d 6db1 451d 97b2
000003d0: 6f12 82b1 8243 f730 39f3 3c32 e6e6 9832
000003e0: 4c53 1f33 bc75 4130 ee29 3b33 986c 26b3
000003f0: 1c95 45b1 1a5d cab2 6b50 fd30 e6e2 49b2
7.269058e-05 6.35701e-06 5.128474e-05 6.0685196e-08 0.029026207 -5.1404325e-09 0.22877026 6.4838596e-06
3.081097e-05 2.5266775e-08 1.9817374e-09 0.31966424 6.6567594e-08 1.2670043e-08 -0.24006157 0.00078711647
2.4109289e-08 -3.3789298e-09 5.5739406e-08 -3.0104648e-09 -9.4667985e-06 -8.701739e-08 2.7063429e-08 -0.07234645
2.136506e-08 -0.18335538 -7.631344e-08 -0.039443757 1.5152838e-07 0.00010688867 -2.5210913e-09 6.866085e-09
1.5361918e-08 0.08934775 1.50887045e-05 -4.9510472e-08 -1.4786938e-06 -9.660912e-06 4.9436367e-06 0.0002410382
-3.3772384e-08 1.2236292e-07 -0.0018558839 -9.6526094e-08 -5.2550895e-08 2.9142061e-08 -1.2024853e-07 7.83231e-08
0.0029522844 1.9201615e-08 -1.2532696e-07 -0.011043229 2.431808e-08 2.1325338e-06 -0.10751706 -4.735444e-08
3.1541454e-06 2.5535549e-08 0.18101904 -2.849635e-06 -5.3872988e-08 -1.2867712e-07 -4.0258885e-09 4.6567052e-08
2.2152633e-06 -0.00034711114 8.9988646e-08 1.7821183e-07 -0.001666477 9.146778e-08 -0.010902761 -8.760692e-08
1.1559743e-07 -3.8562577e-11 -1.5526794e-08 -0.05202432 -1.861901e-08 -1.188359e-08 0.0082736155 0.0075223837
-1.228891e-07 8.16103e-09 -1.5881335e-07 -1.12449484e-07 -7.3697294e-08 1.2515461e-07 7.389483e-08 0.024155874
3.996756e-08 -0.081964865 1.18587714e-07 0.16060303 5.272512e-09 -5.9419794e-08 3.9489258e-08 -3.3310332e-08
1.14658425e-08 0.0011718163 4.325406e-08 2.7459834e-08 0.0010247966 -7.136253e-08 -6.89536e-08 -0.0007424477
-1.8722547e-08 1.3082753e-07 -2.7039756e-05 -0.009117983 3.6054892e-08 -1.4835257e-07 -6.310907e-08 1.3168955e-07
6.532107e-05 -0.0050064013 1.2247642e-07 -1.436789e-07 1.4911461e-07 -4.2277318e-08 -4.9810897e-05 -9.415011e-08
-1.1271847e-08 5.4588543e-09 -0.006822956 8.97404e-08 1.1516043e-07 -2.0744497e-07 -2.6680583e-08 -1.108577e-07
2.1940305e-07 3.3933746e-05 5.305414e-08 -2.21667e-08 9.143196e-09 -1.0524575e-08 0.09458412 3.2059226e-08
-1.11073515e-08 5.2074443e-09 9.529215e-09 0.046816535 -1.16044285e-08 -1.4625487e-08 -0.020945074 1.8629626e-07
-4.5797865e-08 3.7221366e-08 -7.660399e-08 -1.2673236e-07 3.986097e-08 -4.3990713e-08 2.1529212e-08 -0.088651106
-1.8152079e-08 -0.00011671671 2.630283e-08 0.4593287 5.241626e-08 -1.08426384e-07 -2.466972e-09 -3.927041e-08
3.623842e-10 0.049575232 -2.5163663e-08 5.5422453e-09 -0.0029322074 7.9951555e-08 3.1864484e-08 -2.6676426e-07
-1.5194336e-09 6.3998165e-08 -8.9534865e-08 0.010140392 2.552818e-08 -1.221625e-07 1.2965849e-08 -1.9920037e-08
1.5877145e-08 -1.1508541e-07 5.5808815e-08 -1.2147103e-08 -6.28805e-08 2.3627966e-09 -0.000121449666 -3.0971957e-08
-3.4072638e-08 -2.700136e-09 0.067725785 -1.9313594e-08 2.4981233e-08 -2.3414746e-07 -1.3750046e-08 3.4739926e-08
4.946738e-08 -1.522474e-08 8.70484e-09 -1.0475225e-08 1.3492649e-08 1.0025139e-08 1.7107823e-08 3.3984858e-08
1.534587e-08 -4.5812568e-10 -9.729897e-09 -0.0001528432 -7.0860873e-09 -3.4419998e-08 2.8548853e-05 -1.2217832e-07
-3.2509553e-10 1.9587771e-08 8.069275e-09 4.769861e-08 1.1435496e-08 -6.6747914e-09 1.1902766e-08 -7.781471e-09
1.1758243e-08 6.165218e-08 9.279838e-09 0.061103057 1.6883671e-08 -2.0870713e-08 3.3792702e-08 -2.1079718e-08
1.3901992e-09 1.3618899e-06 -6.678684e-10 5.213786e-09 -6.257584e-08 1.3040218e-08 4.2725237e-08 -5.5917827e-08
-5.6826432e-09 -5.9991635e-08 -3.623019e-08 1.9025727e-08 -2.3342693e-08 2.8636915e-08 -7.0589945e-10 -7.7213386e-10
-4.3975167e-08 1.2932307e-09 -3.4568692e-09 -1.7592024e-08 -3.7855936e-09 1.7990802e-09 1.0998343e-08 1.780013e-08
3.709583e-08 7.03803e-10 4.3577465e-08 -3.8748652e-08 -2.8752032e-09 -2.3558233e-08 1.8431029e-09 -1.1751331e-08

bias_ih_l0 f4 [256]
00000000: 0e13 82be 5ced afbd 5eab 80b9 1799 5fbe
00000010: e4be babd 0baf c5be 2b2a 953c 13ec 03bf
00000020: 4728 f3be 95da 8332 1f45 65bf a331 233e
00000030: f7d0 a832 f043 0bb2 7030 5e3e d96c a9bd
00000040: 95a0 06be fbe8 0fb2 9ea7 37bf 28c0 8abe
00000050: 99ed 8dbe 3a26 40bf d52c 60bf ee55 723d
00000060: 1e1b 8ebf bdc6 fcbd 6779 f3bd 0cdb e13d
00000070: 1f5f 07bf 8818 73be d583 09bf 7917 f9be
00000080: 8927 7ebf f662 973e afbe aabd 3985 65b1
00000090: ef3f 59be 19c1 26be cd84 c2bd 87d9 2cbe
000000a0: 4985 5abf 629d 95be cfcc c5be 0fc0 a03d
000000b0: 30d8 44bf 8136 0dbf c156 1cbf 352b 08bf
000000c0: 011e 8d39 05d6 d5bd 5561 24bf 0a58 bdbe
000000d0: b101 54be 9957 ebbe 5b28 13be f129 84be
000000e0: 074e 4dbe 82a7 45b2 72fa 79bb e871 99be
000000f0: 6277 01bf 1c39 b7bd 384e 43bf eda9 47bf
00000100: bc09 86be 95f3 4fbe 8945 82bd d178 0abe
00000110: b3eb b5bc bb7c 60be e7bc ae3d 9a14 febd
00000120: 9bc7 92be 317d 00b2 9c62 c5bd 892b 783e
00000130: 0630 1532 5995 aeb2 5648 963e 7630 b1bd
00000140: 4686 44b3 39bb 0631 29fc f8bd d563 88be
00000150: 725b 5cbe 4db0 eebd 2319 5fbd 5f1d 3a3e
00000160: 6595 a9bd c38c 64bd 8a63 2032 6de1 0e3f
00000170: 827c d0be a032 aabd 090a e2bc f20c 7abe
00000180: 8939 e5be 66b9 a03e fa02 0bbd a02f d731
00000190: 1ec5 c2bd 8002 19be ea3d ca38 d549 29be
000001a0: 8b2d 94bd 4a7b 9bbe 1008 34be 02f2 91bd
000001b0: 78e5 8bbe 9e15 0fbe 1dd5 2bbf 21e4 d1be
000001c0: b4e6 20bd 4f74 f0bc e663 babe a1a1 57be
000001d0: 17e3 6fbe 7352 a0be e3d0 d1bd 57ee 7136
000001e0: 26a7 65be 1d4a 12b3 46fc f23d 4bfa 39be
000001f0: dea8 47be 2b50 c8bd 3f9f 52be 854d 39be
00000200: 2ba8 293e 2e98 083e 2df9 903c 1082 41bd
00000210: 3120 e63d 38a1 b9bc 1c1f 0f3e 38b7 b2bc
00000220: 08ac ac3d 551e 47bd a382 9ebb 56c0 973d
00000230: f9a8 2c3c 41a7 463a 47d8 b8bd 736c 37bc
00000240: 8c7e 34bd 2ad8 5939 345b 11bd 8888 8b3d
00000250: 664c 07be 2216 afbd 622a 6abd 6e81 ecbd
00000260: 4330 19bd c19f 5b3d aa37 d03b c1d7 953d
00000270: d00b 753d 3e03 a6bd 6db7 b83d a9a7 e53d
00000280: e4f3 61bd 33be 19bd 5a47 1abe 278d d7bc
00000290: 7f2c ccbd 96ac 9e3d dd5b 4bbd 0346 b0bd
000002a0: 1fea 553d 393f 01be 5148 89bc ddd1 413e
000002b0: 87d7 493c b27f a93d 2558 9c3c 36a7 f4bd
000002c0: 049f 00bd dada b63d 3456 07be 733e a03c
000002d0: cddb d8bd d383 a1bc 4f78 89bd f921 0a3d
000002e0: 56c2 283e 51e6 98bc 1758 b03d 1110 03be
000002f0: d566 b33c dd91 a0bd 94c2 04be b7ee dabd
00000300: 00c7 80be d1c2 5cbd 7714 4c3d 44d2 25be
00000310: 4098 35be 5174 46be 3f86 74bd bfb0 8dbe
00000320: 1b46 d4be c472 fcb1 b894 07b3 f611 7c3d
00000330: 400c 4b32 d154 beb1 ec32 2fbe 2256 52be
00000340: a569 92bd d301 69b2 88e0 0cbe dd9a 44be
00000350: 844f 03bf c812 0a34 5eb4 7f33 8f59 9e3d
00000360: 42fe 9db3 9c0d 8cbe 32cd fa32 ad63 9e3d
00000370: c06a d0be 5550 5f38 cc31 c730 e9c6 f0be
00000380: bd9e 8039 43b7 c33c 8e75 bebd 39e9 e532
00000390: 8ee8 3abe 9ccc 7ebd e8d9 bd37 1736 8fbe
000003a0: 66ca 0ab3 29c6 4ebe 24c1 95be 167f 333d
000003b0: 4759 cebc 1f14 02be 3068 dabe 9c79 bcbe
000003c0: eaf5 3c3c a03c 4f3a 1d54 04b8 62dc b6be
000003d0: 14fd bfbe dab7 dbbe f709 06bf 7bae 3a36
000003e0: a5a2 6cbe 723b 1830 44e9 8f3d a9b1 2ebe
000003f0: 30bb a2be 463a fdbe ed84 3f38 3253 8ebe
-0.25405163 -0.085901946 -0.0002454174 -0.21835743 -0.09118441 -0.3861011 0.018208584 -0.51532096
-0.47491667 1.5349807e-08 -0.89558595 0.15936904 1.96528e-08 -8.106312e-09 0.21698165 -0.08272714
-0.13147195 -8.376669e-09 -0.7174014 -0.2709973 -0.27720335 -0.7505833 -0.8756841 0.05916398
-1.1102026 -0.12342594 -0.1188839 0.11028108 -0.5287952 -0.23739827 -0.53716785 -0.4865072
-0.99279076 0.2956769 -0.08337151 -3.3399614e-09 -0.21215795 -0.16284598 -0.09497986 -0.16879855
-0.85359627 -0.29221636 -0.3863282 0.07849132 -0.76892376 -0.5516129 -0.61069876 -0.5319093
0.0002691597 -0.104412116 -0.64211017 -0.3698123 -0.2070377 -0.4596527 -0.14370863 -0.2581325
-0.20049296 -1.1504996e-08 -0.0038143662 -0.29969716 -0.5057279 -0.089464396 -0.7629123 -0.7799366
-0.26179302 -0.20307763 -0.06360919 -0.1352265 -0.022207117 -0.21922581 0.08532124 -0.12406273
-0.28667912 -7.479046e-09 -0.09637949 0.24235357 8.683861e-09 -2.0324181e-08 0.29352063 -0.08651821
-4.5756927e-08 1.960599e-09 -0.12157471 -0.26638666 -0.21519259 -0.116547205 -0.05446733 0.18175267
-0.08280448 -0.055798303 9.335858e-09 0.5581272 -0.40719992 -0.08310437 -0.027592676 -0.24419
-0.44770458 0.31391448 -0.033938386 6.262738e-09 -0.09510253 -0.1494236 9.643643e-05 -0.16532071
-0.07235249 -0.303675 -0.175812 -0.071262375 -0.27323508 -0.1397309 -0.6712206 -0.4099436
-0.039282516 -0.029352335 -0.3640434 -0.2105775 -0.23426472 -0.31312904 -0.1024492 3.605053e-06
-0.22427043 -3.406068e-08 0.118645236 -0.18161885 -0.19498011 -0.09780916 -0.2056856 -0.18095978
0.16568057 0.13339302 0.017696941 -0.047243178 0.11236609 -0.022659883 0.13976711 -0.021815881
0.0843125 -0.04861291 -0.0048373505 0.07409732 0.010538333 0.00075780234 -0.09025627 -0.01119529
-0.044065997 0.0002077526 -0.03548737 0.06813151 -0.13212737 -0.085491434 -0.057169326 -0.11548124
-0.03739954 0.05361915 0.006354292 0.073165424 0.05982572 -0.08106087 0.09019361 0.11213619
-0.055164233 -0.037534904 -0.15066281 -0.026312424 -0.099694245 0.07747762 -0.049648155 -0.08607104
0.05222523 -0.12621774 -0.016758116 0.18927713 0.012319452 0.08276309 0.019085 -0.119459555
-0.03140165 0.089284614 -0.13216478 0.019561028 -0.10588799 -0.019716179 -0.067124 0.033723805
0.16480383 -0.01866451 0.08610552 -0.12799098 0.02189962 -0.07840321 -0.1296485 -0.106900625
-0.25151825 -0.05389673 0.049824204 -0.16193491 -0.1773386 -0.19380309 -0.05969834 -0.2767391
-0.41459736 -7.3472126e-09 -3.1567396e-08 0.061540566 1.18189405e-08 -5.5393703e-09 -0.17109269 -0.2054067
-0.07149056 -1.35628e-08 -0.13757527 -0.191997 -0.51293206 1.2859084e-07 5.9535857e-08 0.07731926
-7.3571314e-08 -0.27354133 2.9197142e-08 0.077338554 -0.40706444 5.3242158e-05 1.4493309e-09 -0.47026756
0.00024532332 0.023891097 -0.092997655 2.6765166e-08 -0.18252775 -0.06220685 2.2632026e-05 -0.27970955
-3.231471e-08 -0.2019278 -0.29248917 0.04382237 -0.025189055 -0.12702988 -0.42657614 -0.3681153
0.01153324 0.0007905457 -3.154959e-05 -0.35715014 -0.3749777 -0.42913705 -0.52358955 2.781772e-06
-0.23108919 5.5381755e-10 0.07026914 -0.1705996 -0.31783438 -0.49458522 4.5661745e-05 -0.27797848

bias_hh_l0 f4 [256]
00000000: cf2c 82be 8f05 26be ece0 d0b9 64b9 81be
00000010: 79a2 2ebe f449 8ebe ae79 1c3b 4d6e 05bf
00000020: e6d8 12bf 92a7 af32 f9a1 65bf b4e2 1b3e
00000030: a2e2 efb1 718f d731 1382 783e 6791 02be
00000040: 69b8 acbd b6cc d131 9cec 2cbf 4b27 73be
00000050: 34e8 d2be c635 3abf 31cb 5fbf 15e8 b13d
00000060: ce00 8dbf caa3 1fbe 514d f9bd ea74 d73d
00000070: 5cdc c7be 6ed3 71be 53de 08bf e509 0fbf
00000080: 5f68 70bf 4b52 983e fd23 8cbd 48d6 3d33
00000090: 7873 2dbe f4b8 0abe b768 c1bd b32a 6cbe
000000a0: 0ac2 59bf 8bad 67be 0168 81be f4de 6abc
000000b0: 35b9 51bf 31a0 0fbf 3e5c 11bf 68d6 dabe
000000c0: caf6 b3bc 369f 91bd 1c19 29bf 6b82 7cbe
000000d0: 7e2f 6cbe 3e7b f5be 803d 07be c458 83be
000000e0: 5d96 a7be d2a9 0d32 2d4f 9a3d 27d4 2dbe
000000f0: 2eac 08bf b2a2 54be 8c39 44bf d5b2 44bf
00000100: 5d59 39be 8e48 c8bd fb1a 81bd 01a1 16be
00000110: 64ab ecbd 1b06 1dbe f9f9 e03d 520f 35be
00000120: c880 b2be 7e2a b8b1 d521 c8bd 5417 213e
00000130: b5e3 ceb2 d8c5 2033 db76 9c3e 1e41 38bd
00000140: cb42 28b3 c4ce bab2 5049 eabd 8718 58be
00000150: 3c12 6bbe b2ee ddbd c680 5dbd f097 3b3e
00000160: e6a9 a8bd 3c12 e1bb 79f2 8e32 63eb 1a3f
00000170: 755f 92be 15b1 b6bd 7003 dfbc 2683 82be
00000180: 2327 c8be 282b a03e 4f68 1fbd c89d a332
00000190: 543c 20be ad23 0fbe 36a0 c938 bb83 8ebe
000001a0: 80b9 91bd c1f0 9cbe 409a 1ebe d68c 803c
000001b0: 00dc 91be bfa6 10be 3277 12bf 81ac ebbe
000001c0: f7c9 2abd 6def e5bc c3eb c1be 4e98 4dbe
000001d0: 355d 51be 168f a9be b787 1a3c 84c8 7336
000001e0: 9756 7cbe c37e 4c33 55c3 a03d 47a3 2bbe
000001f0: f342 54be 36c9 1bbe 57f8 56be bf03 35be
00000200: a00f 993d 2808 ca3d fb9d 2ebe 0464 4ebd
00000210: 5d99 323e 4675 13be b3ac cb3d c47a f5bc
00000220: 725f 2c3d 1f52 f33c b459 273b 226d d13d
00000230: 5c14 e6bc ebe7 c1ba 22c4 06be 113a 54bb
00000240: 8171 3d3c 8a4f 59b9 f103 bdbc 5917 313d
00000250: 4f9d a9bc 7a42 313c e183 473d 0d7c f33b
00000260: 0c8f c03c bfe3 d6bc ea0c 15bb 51b4 383d
00000270: 4698 573d d3c1 85bd e36d 1cbd d726 043c
00000280: f586 fbbb dc39 063e bcc0 653c d9d7 aa39
00000290: 6b1e 0bbe 4d35 453d 126a 4ebc 509f 003d
000002a0: 9abd b2bd 5a16 27bd 22af a8bb 74c1 0d3d
000002b0: ecc5 1cbd 48c8 49bd f3ef ebbd 1f07 9fbc
000002c0: f1b2 d4bd 113c ce3d 1a3f 9b3d ce6a 40bd
000002d0: 641f bdbd ed13 05bd db03 06bd 15bc 2bbd
000002e0: 1772 0e3d cff9 b63c 0fb0 2f3e 27cf 59bd
000002f0: d07a 363d 20da 1eb9 1960 363c 57df 893d
00000300: e098 7fbe 3777 d6bd dabd 463d a3b4 11be
00000310: 2f79 80bd 8fcd 09be 7091 fcbd 6e95 98be
00000320: 86fb a8be dd7a a332 bb7f cab2 8d78 24bd
00000330: 4ccb 8132 2641 2833 dad5 15be 2e1e 4dbe
00000340: c50a 34bd 1521 1fb2 6b99 19be 32fc 20be
00000350: 1c09 dfbe 085e e533 09c4 6d33 f3d6 9c3d
00000360: 395c 6db3 7b41 cabd d3a4 11b3 b37b 083d
00000370: 2d0c f9be 9edb 2bbc 2511 deb1 2758 e2be
00000380: 06ae 3839 c8fe f03a 8ffb 94bd c8ad 0b31
00000390: 6a8e 2dbe 0915 6ebd 0672 be37 dbfc 25be
000003a0: a734 5fb3 a3f5 08be 7c9b 3ebe fb0a b93d
000003b0: ce7c 8dbc 7879 06be 6b61 e3be 550d bfbe
000003c0: 0949 593c f2e9 daba 8221 03b8 049d c5be
000003d0: 191f ebbe b59b dcbe 0c4f d4be fb5e 3a36
000003e0: cc0f 6fbe 9f32 0e32 54a8 b2bc 44ca 4abd
000003f0: 9684 82be 73a0 05bf 61d5 3938 8ee4 75be
-0.2542481 -0.16213058 -0.0003984043 -0.25336754 -0.17054166 -0.27790797 0.0023876238 -0.5212143
-0.5736221 2.0448883e-08 -0.89700276 0.15223199 -6.9815806e-09 6.273631e-09 0.2426837 -0.12750779
-0.08433611 6.1059735e-09 -0.6754854 -0.23745458 -0.41192782 -0.727383 -0.8741942 0.08686844
-1.101587 -0.15589824 -0.1217295 0.105203465 -0.39035308 -0.2361581 -0.5346424 -0.5587447
-0.9390926 0.29750285 -0.06842802 4.419988e-08 -0.16938579 -0.13547117 -0.09443801 -0.23063163
-0.85061705 -0.22624795 -0.2527466 -0.014335383 -0.8192323 -0.5610381 -0.56781375 -0.42741704
-0.021968264 -0.07110445 -0.6605394 -0.24659126 -0.23064992 -0.4794559 -0.13207054 -0.2565366
-0.32731906 8.245893e-09 0.07534633 -0.16975461 -0.53387725 -0.20765188 -0.7665031 -0.76835376
-0.18100496 -0.09779464 -0.06303974 -0.14709856 -0.11556128 -0.1533436 0.109851785 -0.17681625
-0.34863877 -5.3599356e-09 -0.09772078 0.15731555 -2.4085105e-08 3.743284e-08 0.3055943 -0.044983976
-3.9176296e-08 -2.1747276e-08 -0.114397645 -0.21103106 -0.22956175 -0.10836543 -0.054077886 0.18319678
-0.082355306 -0.006868629 1.664124e-08 0.6051542 -0.28588453 -0.089204945 -0.027223319 -0.25490683
-0.3909236 0.31282926 -0.038917836 1.9047448e-08 -0.15648013 -0.13978453 9.6142685e-05 -0.27834877
-0.071154594 -0.3065243 -0.15488529 0.015692156 -0.2848816 -0.14126109 -0.5721313 -0.46030048
-0.041696515 -0.028068269 -0.37875184 -0.20077631 -0.20445712 -0.33116978 0.009431771 3.6326537e-06
-0.24642406 4.761274e-08 0.07849757 -0.16761504 -0.20728664 -0.15213475 -0.20993172 -0.1767721
0.07473683 0.09864837 -0.17052452 -0.05038835 0.17441316 -0.14400205 0.09945049 -0.029965766
0.04208321 0.029702244 0.0025535645 0.102258936 -0.02808588 -0.0014793848 -0.13160756 -0.0032383243
0.011562706 -0.00020724363 -0.023073168 0.043235157 -0.020704893 0.010819072 0.048709754 0.0074305595
0.02350571 -0.026231645 -0.0022743293 0.045093838 0.052635454 -0.0653111 -0.038190734 0.008065901
-0.0076760002 0.13108009 0.014023002 0.00032585746 -0.13585822 0.048146535 -0.012598531 0.031401932
-0.0872757 -0.0407928 -0.0051478306 0.03460832 -0.03827469 -0.04926327 -0.11520376 -0.019412575
-0.10385693 0.100700505 0.07580395 -0.046976857 -0.09234503 -0.032489706 -0.03271852 -0.041927416
0.034776773 0.022335915 0.17157005 -0.05317607 0.044550717 -0.00015149312 0.01113131 0.06732052
-0.24960661 -0.10471957 0.0485209 -0.14229064 -0.06273114 -0.1345732 -0.123324275 -0.29801506
-0.33004397 1.903157e-08 -2.357398e-08 -0.04015403 1.5110025e-08 3.91748e-08 -0.14632359 -0.20031044
-0.043955583 -9.26254e-09 -0.1499993 -0.15721205 -0.43561637 1.0680748e-07 5.5359155e-08 0.07658186
-5.526474e-08 -0.09875771 -3.391035e-08 0.033321094 -0.48642102 -0.010489373 -6.4629995e-09 -0.4420788
0.00017612436 0.0018386478 -0.072745435 2.0325945e-09 -0.16948858 -0.05812553 2.2702861e-05 -0.16209738
-5.196912e-08 -0.13374953 -0.18614 0.090352975 -0.017271426 -0.13132274 -0.44410262 -0.3731486
0.013262042 -0.0016701801 -3.126404e-05 -0.38596356 -0.45922163 -0.43087545 -0.41466558 2.7771446e-06
-0.2334587 8.276998e-09 -0.02180878 -0.0495093 -0.2549178 -0.5219795 4.430616e-05 -0.24012968

weight_ih_l1 f4 [256, 64]
00000000: 5bb8 fdb3 3d15 64b3 07a2 10b2 1f1e af32
00000010: 1d7b 0535 d5c6 e632 fca0 0233 ac54 2933
00000020: 26f7 ceb2 fd2d 93b2 aa5e b5af 9996 ccb9
00000030: fd1f 8131 2b6d b1b1 ce87 0bb9 8cc6 8eb3
00000040: 7da9 9eb2 c80e 16b1 102d 8732 5054 0633
00000050: 566c 3434 8061 a131 087b 1f31 d6b0 30b5
00000060: 05f6 90b2 0c6e 57b7 b280 43b3 75fc 513b
00000070: da4a 64b1 6e0c 0433 5e09 6031 1bfd 6ab2
00000080: 214e f332 4925 04bb 5fff 3733 23cd 6e32
00000090: 312d a933 c738 dbb1 5192 dcb2 0d76 bdb3
000000a0: 0b65 7e32 9949 fcb1 6445 fb33 d7ba a432
000000b0: 6975 d030 d5a4 8033 462a f132 9280 d4b1
000000c0: 581d 7833 d249 3133 4d8b b2b1 5777 1034
000000d0: 9173 21b3 4207 8c33 d958 07b8 e78f 35b3
000000e0: aa99 38b4 160a ea31 9895 a334 988e 6db0
000000f0: ebac 2332 2a8d 4a33 772d 2a33 dc23 cdb1
00000100: 2e4e 0f31 b4ca 75b2 cd42 9132 2218 c132
00000110: 304b 11b3 1d31 89b2 3490 3bb3 63a9 35b2
00000120: 2767 a632 6f4e 34b1 3354 862f 654a 4ab7
00000130: 0adb 1932 8ce1 9b32 eeff 0537 ce81 8a33
00000140: 1116 e1b0 4875 f3b2 5a9d 7032 1c5c 6732
00000150: fd98 0e32 82b4 43b2 ae79 2932 571f 8eb3
00000160: 688e a930 9df0 c732 211d c0b2 21cb 0237
00000170: a7d2 3d32 c6a3 65b2 a0e1 e1af 20dd a2b2
00000180: 676d d931 12aa 1e33 e013 a7b2 dd8f 162f
00000190: 33de a8b1 c3f0 28b3 ce0a c9af b287 50b3
000001a0: b311 d431 3730 6d33 bd92 9432 0d5a 7931
000001b0: 9602 a4b2 0889 dab2 baff 9831 7e44 5331
000001c0: 5d30 9bb2 749d 48b3 7154 8ab2 94ad f531
000001d0: 0d0f b432 98b5 8bb2 2dfd c532 5348 01b1
000001e0: 1a1a 46b3 5c90 49b3 87c6 16b3 2349 05b1
000001f0: 31e4 0932 9bb7 14b3 291e 34b1 5d38 2333
00000200: 9010 93af 7554 4b33 fd0a 7eb3 3f36 7e32
00000210: 6c1d 9b33 4ca6 01b1 b7b6 e73a 002c 9231
00000220: d0c3 df32 087e 44b2 b1a9 1332 821d 613c
00000230: 0031 25b2 680d aa31 90e2 85ba e531 d5b3
00000240: 1ced 92b2 8b72 8131 4bfd a7b2 a5d7 68b2
00000250: f6f4 922e 917a c9b1 5135 62b1 b17f 1bb9
00000260: 160e 9632 2b14 33b5 62d4 79b1 f76b 363e
00000270: 0c4b 0533 a745 382e 689d 4e30 0384 3332
00000280: c73c 5332 630d a63d cc15 79b3 c3df 78b0
00000290: aac7 9ab4 c740 aa32 af04 6032 f54e bd33
000002a0: e818 1bb2 3685 f3b3 8b7e 37b2 a36d a133
000002b0: 6b5e 2fb2 9b4c 2db2 43fe 01b3 7aa0 ebb2
000002c0: 42a2 0bb3 b227 9633 2285 e2b2 339e 1fb3
000002d0: 208d 1633 c19b f032 214b cfb3 b7ac 59b2
000002e0: 59b0 1033 edd3 79b1 817a 1339 ed00 1833
000002f0: e43f beb2 5e2c 6aad c480 6831 2605 15b3
00000300: 9c24 98b3 4022 2634 ad8a 883b 6c52 6eb1
00000310: 9eb5 d23c e6a2 2bb3 b985 f53d 1062 e533
00000320: b8b1 b332 4f37 cd32 6d29 7033 ff34 453e
00000330: e339 3b33 2202 7132 0794 29be e158 7d38
00000340: 851a 9c33 aca4 9131 e60f 7334 2b69 f733
00000350: c464 b2b3 e5fb 44b4 f393 b133 6c0f e53c
00000360: de4c 9a31 c7f3 eebb 9e75 b6b3 fded c2bd
00000370: c11d 12b2 5d25 9534 3b14 5bb2 2ccb f1b3
00000380: 476e 0a32 5a0f a6bd 95c5 8ab2 65c0 9e32
00000390: 6246 263c 92cd 4733 95f0 c7b2 7186 ad35
000003a0: f676 cf32 f182 97b3 b717 9b38 0fa9 dcbb
000003b0: 977d 4ab3 fc42 8d34 b560 d6b1 9ba6 ee32
000003c0: 3ba6 b83b cd0d 81b8 de49 ddb3 5414 5737
000003d0: 5d7e 0cb6 0023 beb2 99a8 79b3 158f 0eb3
000003e0: 97ef 0034 82d0 bf32 cb42 b23d 7b16 1cb8
000003f0: 40e6 adb3 6885 ec32 efc2 1c33 5be9 1934
-1.18147646e-07 -5.3104703e-08 -8.418744e-09 2.0386379e-08 4.9725514e-07 2.6865942e-08 3.0414398e-08 3.9425387e-08
-2.4093946e-08 -1.7133965e-08 -3.299097e-10 -0.00039022116 3.7580308e-09 -5.163789e-09 -0.00013306664 -6.648506e-08
-1.8470695e-08 -2.1836275e-09 1.573656e-08 3.1275988e-08 1.6803219e-07 4.696801e-09 2.320748e-09 -6.582244e-07
-1.6875683e-08 -1.2840621e-05 -4.5519023e-08 0.0032041345 -3.3220915e-09 3.074495e-08 3.2601615e-09 -1.3678142e-08
2.8324452e-08 -0.0020163825 4.2840266e-08 1.3900066e-08 7.877896e-08 -6.3801937e-09 -2.5677908e-08 -8.8224716e-08
1.480772e-08 -7.3425324e-09 1.17007204e-07 1.9177078e-08 1.5167362e-09 5.990447e-08 2.8075316e-08 -6.184629e-09
5.7768688e-08 4.1278163e-08 -5.1963185e-09 1.345446e-07 -3.759084e-08 6.520578e-08 -3.2269254e-05 -4.2273225e-08
-1.7192238e-07 6.811443e-09 3.046996e-07 -8.6422736e-10 9.527166e-09 4.7160178e-08 3.962256e-08 -5.970362e-09
2.0853679e-09 -1.4306966e-08 1.69106e-08 2.2479131e-08 -3.3828826e-08 -1.5971233e-08 -4.3670482e-08 -1.0574101e-08
1.9371852e-08 -2.6238032e-09 2.4434285e-10 -1.205746e-05 8.955576e-09 1.8146942e-08 7.987006e-06 6.449737e-08
-1.6377176e-09 -2.8342257e-08 1.4005616e-08 1.3466913e-08 8.300273e-09 -1.1391537e-08 9.8647615e-09 -6.618091e-08
1.2336843e-09 2.3276067e-08 -2.2364988e-08 7.7958985e-06 1.1049145e-08 -1.3366792e-08 -4.1087578e-10 -1.8959838e-08
6.327969e-09 3.694192e-08 -1.9450397e-08 1.3693531e-10 -4.9147046e-09 -3.933452e-08 -3.6569364e-10 -4.8552188e-08
6.1720242e-09 5.5224714e-08 1.7296196e-08 3.6285457e-09 -1.9093289e-08 -2.5440855e-08 4.452855e-09 3.0743474e-09
-1.8066368e-08 -4.670933e-08 -1.6103714e-08 7.150172e-09 2.0961602e-08 -1.6264309e-08 2.304895e-08 -1.8813082e-09
-4.6124207e-08 -4.6930253e-08 -3.5105156e-08 -1.939562e-09 8.026334e-09 -3.4625923e-08 -2.6210591e-09 3.8002657e-08
-2.6750913e-10 4.7341434e-08 -5.9148977e-08 1.479708e-08 7.223102e-08 -1.88665e-09 0.0017678355 4.2541615e-09
2.6049662e-08 -1.1437358e-08 8.5951095e-09 0.013739945 -9.615405e-09 4.9491753e-09 -0.0010214616 -9.927661e-08
-1.7104462e-08 3.767416e-09 -1.9556543e-08 -1.3553209e-08 6.682825e-11 -5.863804e-09 -3.2917635e-09 -0.0001482952
1.7468704e-08 -6.6712045e-07 -3.6354995e-09 0.17814623 3.103473e-08 4.189862e-11 7.516605e-10 1.0449187e-08
1.2295636e-08 0.08108022 -5.7994654e-08 -9.053986e-10 -2.883001e-07 1.9820062e-08 1.3039581e-08 8.8153605e-08
-9.0278505e-09 -1.13398e-07 -1.06807745e-08 7.5170895e-08 -1.0207809e-08 -1.0087343e-08 -3.0266403e-08 -2.7430577e-08
-3.2511032e-08 6.99214e-08 -2.6370405e-08 -3.7163954e-08 3.505295e-08 2.8010506e-08 -9.6528545e-08 -1.2670333e-08
3.3688e-08 -3.6354735e-09 0.00014064649 3.53911e-08 -2.2147965e-08 -1.33112115e-11 3.3833638e-09 -3.469645e-08
-7.084711e-08 1.5472415e-07 0.004166922 -3.468041e-09 0.025721367 -3.9962195e-08 0.11988396 1.0681481e-07
2.091916e-08 2.3890292e-08 5.591703e-08 0.19258498 4.3591978e-08 1.4028531e-08 -0.16560374 6.0402675e-05
7.26914e-08 4.2387764e-09 2.2636922e-07 1.1520964e-07 -8.3071e-08 -1.8345561e-07 8.2691166e-08 0.027961455
4.4907287e-09 -0.007292244 -8.49643e-08 -0.09518049 -8.505084e-09 2.7780598e-07 -1.2752078e-08 -1.1259394e-07
8.057731e-09 -0.08108397 -1.6155164e-08 1.8481112e-08 0.0101486165 4.6520263e-08 -2.3276053e-08 1.2928632e-06
2.4152069e-08 -7.0553035e-08 7.395393e-05 -0.0067340205 -4.7146013e-08 2.6312034e-07 -6.239214e-09 2.778261e-08
0.0056350506 -6.15377e-05 -1.0304551e-07 1.2819732e-05 -2.0935179e-06 -2.2134827e-08 -5.812817e-08 -3.3192084e-08
1.2008091e-07 2.2330145e-08 0.08704146 -3.7214235e-05 -8.0978225e-08 2.7534682e-08 3.649887e-08 1.433413e-07

weight_hh_l1 f4 [256, 64]
00000000: ba52 5135 2d0b f3b1 a223 2f32 a497 9abb
00000010: 10e4 8733 b9a5 1634 25bb 8632 f3dc 9bb3
00000020: 02f1 28b4 9e59 bdb2 db95 96b5 a9c5 61b3
00000030: 37c7 da33 8cfa 7daf 8e37 cbb2 6632 1fb3
00000040: 870d 4eb2 8950 a934 5491 0f32 86bb 9331
00000050: 3070 d739 b304 cbb1 45e5 e139 c09e 6037
00000060: eff8 1a34 fd7e 32b3 61f9 17b4 5fda 983b
00000070: 42b1 b232 08f3 0d32 f7d5 ee32 00fc a0b7
00000080: e094 c133 87ee 0234 4bcc 8932 9808 57b3
00000090: cb53 e933 7791 12b4 b5b7 9533 bc52 4c3d
000000a0: 952d 0033 3bff 4533 867c 1b31 e199 8a32
000000b0: 1c31 4533 4f34 2a33 7bfb 8ab6 9af3 1d37
000000c0: e0f0 f232 5abe 86ba b974 b8b0 312a 21b1
000000d0: 4cad e9b3 cec6 95b6 4d21 97b2 c2da 9cb2
000000e0: 8563 64b3 aaf3 42b6 c5cb 70b3 b297 a9bc
000000f0: df0e 0933 2f8d bab3 0c61 17b9 32df dcb2
00000100: 9b9e 9ab1 db5a 16b3 a58b 18b3 bf90 1db2
00000110: 2c1c 49b3 0d13 fd31 8356 82b2 905c e432
00000120: 416e 58b2 efb5 4d33 d3ad 7fb3 2ea2 9732
00000130: 76bc 56b3 3c22 97b3 220d 1831 91db dc31
00000140: a721 1db3 f719 25b3 f833 ff30 58c8 71b1
00000150: e5b3 c8b2 20f3 5932 4ea3 00b3 613d 75b2
00000160: 1425 f6b2 b355 9e32 7872 99b2 aa10 8831
00000170: 3355 56b3 34d6 08b2 3d92 37b3 6eef f431
00000180: 0e88 abb2 b02a c631 9a7a b831 396f 5433
00000190: fb52 6fb2 14b1 e232 18e9 37b2 f91d d7b7
000001a0: e1c4 77b3 3b6b 9c31 4432 9e31 8a37 1532
000001b0: 396b c3b2 e5ff 51b1 8b73 5d33 14bd 1933
000001c0: 6224 7cb2 d829 1433 f557 3b32 84e6 02b1
000001d0: 557a 75b1 b72d c932 66c3 9fb1 3bf2 ff32
000001e0: ac8e 43b2 c3b8 1332 00f4 5a32 a554 e2b2
000001f0: 423f 36b3 9f8d 2b33 95c3 9d33 becf 2d33
00000200: c454 83b4 202d e532 4217 fcb3 f1b1 cfbc
00000210: 8f7e e633 de5e afb3 2ab0 64b2 6af0 99b2
00000220: a723 90b1 1c24 55b2 e8de 4db4 8879 d7b2
00000230: faff 0233 dfeb 09b4 f58f f1b0 d5d4 46b3
00000240: d50a aeb2 b0dd 3834 3a93 9bb2 ce07 23b2
00000250: 17b6 3c37 6b10 01b4 2284 4e3b 35fc 9eb3
00000260: e38d 5232 f5f5 98b3 ec15 3633 ad1f 7b39
00000270: a4aa 9432 6bb0 34b3 ddd9 c5b1 be2c ecb9
00000280: a94e 28b4 99f8 0db3 0b0b 17b3 c3a6 bab3
00000290: d1c2 1533 c2b4 3f34 7bf8 c732 56ad b73e
000002a0: 6209 d1b2 637b a2b3 c746 c633 4f7d c333
000002b0: 6095 1a33 6bae d031 b088 3634 995d af35
000002c0: 64dd 88b2 812a 5634 cfaf 3332 9ec6 0632
000002d0: 4ea5 e5b1 4bbf e832 e906 5a33 c792 1a32
000002e0: 9653 44b1 2829 d5b5 81d3 e432 7887 f4bd
000002f0: 6eba 2a33 f8ed 00b3 1a6c c4bc cfe1 24b3
00000300: de1d 113c 4ee0 8cb9 60de a7ba 1e9a bfbd
00000310: 0c3b 5339 a0fe 8fb6 f219 9a33 9017 9fb3
00000320: d934 4d36 37f9 8132 3039 aa3c 0290 6d33
00000330: d523 aeb2 eb59 a638 c418 2fb4 7818 87b3
00000340: 4ff9 4bbc 881f f23b 35b7 d4bb 5169 81b2
00000350: 78c7 71ba fc6c ddb3 95d0 bfbc f899 0c3d
00000360: 7f72 a037 1288 d8ba c737 37b8 6017 9cbb
00000370: 5068 61b9 83c9 d533 5d86 d6b2 326f f23b
00000380: 892c bbb3 4691 42b8 ef58 9332 3c57 cbb2
00000390: 0099 293c cc67 0437 4755 bd30 6123 69bd
000003a0: c8f1 fc3c 34c3 7eb2 d42c eb39 b387 a732
000003b0: 05a3 0231 0c80 a633 0b1a ad33 55d2 0a3d
000003c0: d314 e1b3 00d5 b1b8 7e6a adb1 d04e 8330
000003d0: 2706 b9b3 462e 06bc 246d 3ab2 b31d 613b
000003e0: fede 4f34 334c 7f39 d7a2 eab4 e14b 41bd
000003f0: 5049 1b32 fb84 00b1 9b11 db3d 81dc 10b2
7.797895e-07 -7.0735013e-09 1.0194443e-08 -0.004717784 6.327912e-08 1.4030128e-07 1.5684757e-08 -7.2579404e-08
-1.5733897e-07 -2.2043249e-08 -1.1219485e-06 -5.2566666e-08 1.0187653e-07 -2.3099228e-10 -2.3657574e-08 -3.706591e-08
-1.1993854e-08 3.15373e-07 8.356739e-09 4.299582e-09 0.00041091582 -5.908612e-09 0.00043086163 1.3388402e-05
1.4432929e-07 -4.155935e-08 -1.4153694e-07 0.0046647037 2.0802535e-08 8.262539e-09 2.7804147e-08 -1.9190833e-05
9.014343e-08 1.2193969e-07 1.60418e-08 -5.0066404e-08 1.086515e-07 -1.365023e-07 6.971769e-08 0.04988359
2.984378e-08 4.6099768e-08 2.2626252e-09 1.613529e-08 4.59123e-08 3.9628784e-08 -4.1419967e-06 9.414647e-06
2.8282045e-08 -0.0010280118 -1.3420937e-09 -2.3452567e-09 -1.08814305e-07 -4.46369e-06 -1.7593857e-08 -1.826027e-08
-5.31759e-08 -2.9050084e-06 -5.6064682e-08 -0.020702217 3.1911323e-08 -8.686981e-08 -0.00014436635 -2.5712868e-08
-4.5000212e-09 -3.500723e-08 -3.5517264e-08 -9.171514e-09 -4.682458e-08 7.365435e-09 -1.5173333e-08 2.6584786e-08
-1.2597924e-08 4.789575e-08 -5.9529906e-08 1.7652464e-08 -4.9997162e-08 -7.0377126e-08 2.2126376e-09 6.4278045e-09
-3.6585018e-08 -3.844067e-08 1.8568462e-09 -3.5183998e-09 -2.3364871e-08 1.2686343e-08 -2.9950847e-08 -1.4274833e-08
-2.865503e-08 1.8432592e-08 -1.7863599e-08 3.9600154e-09 -4.9903246e-08 -7.964946e-09 -4.274101e-08 7.1285546e-09
-1.996889e-08 5.7674114e-09 5.369043e-09 4.9461253e-08 -1.39304985e-08 2.6390389e-08 -1.0705001e-08 -2.5643954e-05
-5.768823e-08 4.5523882e-09 4.6041198e-09 8.68557e-09 -2.2749747e-08 -3.0558962e-09 5.1560658e-08 3.5795054e-08
-1.4676603e-08 3.4496992e-08 1.0904832e-08 -1.9048523e-09 -3.572173e-09 2.3420268e-08 -4.6497233e-09 2.979606e-08
-1.1382934e-08 8.598536e-09 1.2744749e-08 -2.6348355e-08 -4.243271e-08 3.9942844e-08 7.3464584e-08 4.046864e-08
-2.4462327e-07 2.667963e-08 -1.1738895e-07 -0.025353404 1.07332305e-07 -8.166329e-08 -1.3311402e-08 -1.7920872e-08
-4.195005e-09 -1.2406442e-08 -1.9173206e-07 -2.508456e-08 3.0500793e-08 -1.2844929e-07 -1.7575973e-09 -4.6294037e-08
-2.0261192e-08 1.7216985e-07 -1.8111326e-08 -9.489623e-09 1.1248069e-05 -1.2020034e-07 0.0031511863 -7.4033245e-08
1.225587e-08 -7.122791e-08 4.2395115e-08 0.00023949025 1.7307066e-08 -4.2069967e-08 -5.758223e-09 -0.00045046763
-1.5674836e-07 -3.305522e-08 -3.516747e-08 -8.691634e-08 3.486895e-08 1.785402e-07 2.3279645e-08 0.35874432
-2.4335069e-08 -7.566157e-08 9.232968e-08 9.1031886e-08 3.5991775e-08 6.0734258e-09 1.6999797e-07 1.3065757e-06
-1.593316e-08 1.9945766e-07 1.04591455e-08 7.844987e-09 -6.68357e-09 2.7095345e-08 5.0763365e-08 8.997353e-09
-2.8569267e-09 -1.5881715e-06 2.6638874e-08 -0.11939901 3.9750766e-08 -3.0018754e-08 -0.023977328 -3.8389597e-08
0.008857219 -0.0002687 -0.0012807362 -0.093555674 0.00020144525 -4.2913744e-06 7.175903e-08 -7.4083005e-08
3.0578142e-06 1.5130906e-08 0.020779222 5.5311837e-08 -2.027256e-08 7.932245e-05 -1.6307155e-07 -6.290878e-08
-0.0124495765 0.0073890127 -0.0064915665 -1.5065469e-08 -0.00092231436 -1.03109386e-07 -0.02341489 0.034326524
1.9126803e-05 -0.0016520044 -4.3682547e-05 -0.0047635287 -0.00021496532 9.95524e-08 -2.497398e-08 0.0073985094
-8.715967e-08 -4.63885e-05 1.7153495e-08 -2.367198e-08 0.010351419 7.89198e-06 1.3775797e-09 -0.056918506
0.030877009 -1.482913e-08 0.00044856092 1.9503068e-08 1.9010156e-09 7.753269e-08 8.0606775e-08 0.033891995
-1.0481167e-07 -8.479692e-05 -5.0470694e-09 9.553904e-10 -8.615853e-08 -0.008189743 -1.0851441e-08 0.0034349978
1.9359501e-07 0.00024347081 -4.3704378e-07 -0.047191504 9.038857e-09 -1.8702042e-09 0.10696717 -8.43204e-09

bias_ih_l1 f4 [256]
00000000: 8eba 9bbd 5eae 163b 0ce0 a1be 002d 253e
00000010: 94d2 13be 2e56 5fbe 9a53 d2b1 51bd fabe
00000020: 5b05 84be 1ee9 4fbc d03a 033d 7b2a e4bc
00000030: 73df 0037 f38c fe3c cd32 cfbe 1518 63b2
00000040: b5a6 60bd b244 f9bb d59e 1bbe 16f0 4db0
00000050: 6d52 b13b 4b70 73be 673f 90bc bc66 373d
00000060: 0f16 95be 93ae 1dbb d464 8fbe 8ffe 0f3d
00000070: 9b33 4bbe 122e febe caac b236 6018 d73b
00000080: 4cc7 f3be bb90 b1be 53b7 f235 b16c d7bd
00000090: 7082 abbd 0522 adbe 09ac 8239 5a2d ea3d
000000a0: 571f b83c d46d 6237 de8b 04bf 0470 cebe
000000b0: a196 9739 6c9e 05bf 0077 3abe 20b6 243d
000000c0: 144e a3b2 6e2f 0f3c fb3d 5eb1 8c22 82b2
000000d0: 7163 d7bc 2312 353d 5a49 ee35 1d60 213a
000000e0: ebfa d6b1 704e 673b cac7 d539 9927 743d
000000f0: 3bcf 583b ce87 e638 4c99 0d3e ccf8 8231
00000100: bd4d 9ebd b08c 2e3b 86f5 62be 4154 e33d
00000110: bf39 6ebd eb2b 33be fbc0 0c32 f9d4 90be
00000120: 2a62 96be 8980 4438 ac81 ac3d 1eae 553a
00000130: be8a 2737 b21b 243d f5e9 20be 4864 972f
00000140: 56f9 81bd 64d4 16bd 7bbc d5bd bba8 beb1
00000150: 9a08 05bc 16fc bbbd 2cd3 853b 573e 683d
00000160: d3e0 22be a105 ca3a e2ba 89be d7ba 1a3d
00000170: 0795 62bc ec21 8fbe 26cc 8c37 87ff ce3c
00000180: 2245 3bbe a372 b9be 98a4 0c35 9e0c 093b
00000190: dd77 abbd 0804 89be 90ac 643a 458d d93e
000001a0: 3054 963d 8496 a937 2bb9 95be 928d 6abe
000001b0: 9be6 b739 0dc0 26be cb64 6abd 3436 a6bc
000001c0: e189 24b0 c722 3b3d a8dd dc30 8fa7 95b0
000001d0: 9b4c 8b3a 8385 6a3d d416 1e37 7e95 553b
000001e0: ee2b 08b2 47e4 103c e0eb 863b 91df 003e
000001f0: d963 343b c3bf 253a 4915 973d 144f e730
00000200: 6c0d 8d3d e909 99bc 5ee7 343d 9bca ccbd
00000210: 2312 cdbd 718f b53a 0954 533a 4534 253d
00000220: 13e8 613d 0956 a93a f747 f43c e850 3d3d
00000230: 2217 a1bc c8bc 593c 09de 293d af46 76bd
00000240: 47dd d9bd 5131 3fbd 57a7 803d 9949 a2b8
00000250: 8707 133e 854f db3c 8f14 7fbc c463 203e
00000260: 7e66 b33c 11d1 9f3c 5b41 93bc 5ed3 123e
00000270: 972d afbb 02b3 793c 1ad5 b9bb 1751 02bd
00000280: de91 ecbc 9817 15be 8d16 2e3c 906e a03d
00000290: 48b6 d1bd bf3e cebb 47b3 f0bc 23bf 19bd
000002a0: 220e 0fbc 35da 10bc 79e7 3d3d 8614 f03b
000002b0: 2dcb 21bd 3375 243d 5791 82bd 01f5 623e
000002c0: 528b c33a 8982 75bd 36f4 2139 aa7a a9b1
000002d0: 0679 973c 6f3c d2bd 1033 87bc 35e0 c23c
000002e0: 797f 8fbb 82bf 97bd 9250 023d 871e e5bd
000002f0: 5519 98bc 6415 5c3d be12 a73c 2afa 2833
00000300: f31e 98bd 832b 1939 fc3a 74be e4b4 a5bd
00000310: b1a8 11be fd6e 57be e72b 2033 b605 15bb
00000320: 0b3c 8dbe 8854 f937 643e ad3d 107a 9b39
00000330: b291 2436 874a 3e3c 7eb2 4abd 5bb5 dc32
00000340: 818b a6be eeb5 f9bd 32cd 6c3a 4174 27b2
00000350: b158 63bd c468 76b2 69c2 92bd 2f77 44be
00000360: 23cb 243c 90e8 c939 040e 85bd a815 82be
00000370: 324f 2335 5bf9 aa3c 43c9 1733 8eff b93c
00000380: 1aa9 5fba ad27 87bb ccb8 83b3 ebeb edbc
00000390: 4ec5 e0bd ffde 6539 6956 0639 c6bd e53d
000003a0: 546a 2b3b 1cac 1b37 48c4 37be 7627 32be
000003b0: f999 0639 aa12 b438 ae9c 85be 519b ffbd
000003c0: ebba bab2 ad95 36be 2d77 0131 91f8 3932
000003d0: 6dd4 bc3a 9538 84be e926 7fb3 7870 e839
000003e0: 56d4 f332 89d8 d33c ae59 f239 77f6 8d3d
000003f0: e3ac e538 81c4 1838 8d12 a2bd 96d7 6eb2
-0.07603942 0.0022992115 -0.31616247 0.16130447 -0.14435798 -0.21810219 -6.121309e-09 -0.48972562
-0.25785336 -0.012689857 0.03203851 -0.027852288 7.68142e-06 0.03107307 -0.40468445 -1.3218615e-08
-0.054846484 -0.007607066 -0.15197308 -7.491975e-10 0.0054114372 -0.23773305 -0.017608358 0.04477571
-0.29118392 -0.0024060353 -0.28006613 0.035154875 -0.19843905 -0.49644524 5.3249287e-06 0.006564185
-0.4761299 -0.34680733 1.8083759e-06 -0.10518778 -0.08374488 -0.33815017 0.00024923708 0.114344314
0.022475882 1.3496221e-05 -0.5177592 -0.40319836 0.00028913192 -0.5219486 -0.18209457 0.04021275
-1.9011203e-08 0.008739335 -3.2340484e-09 -1.5149702e-08 -0.026292535 0.04420675 1.775373e-06 0.00061559846
-6.256746e-09 0.0035294555 0.0004077538 0.059608076 0.0033082503 0.0001099255 0.1382801 3.811783e-09
-0.07729671 0.002663415 -0.22163972 0.111000545 -0.05816054 -0.17497222 8.192951e-09 -0.28287485
-0.29371768 4.684975e-05 0.084231704 0.00081512507 9.986279e-06 0.040065475 -0.15714248 2.7537994e-10
-0.06346385 -0.036823645 -0.104363404 -5.54891e-09 -0.008119727 -0.09178941 0.0040840115 0.056700077
-0.15906076 0.0015413054 -0.26900393 0.03777584 -0.013829476 -0.27955568 1.6784365e-05 0.02526833
-0.18288091 -0.36220273 5.239358e-07 0.0020912061 -0.083724715 -0.26760888 0.00087232236 0.42490593
0.07340276 2.021646e-05 -0.29242834 -0.22905567 0.00035076294 -0.16284199 -0.05722503 -0.020289518
-5.985879e-10 0.045687463 1.6070105e-09 -1.08888e-09 0.0010627689 0.057256233 9.422849e-06 0.0032590325
-7.92623e-09 0.008843488 0.004117474 0.12585284 0.0027525334 0.0006322825 0.07377107 1.6829937e-09
0.06887326 -0.018681483 0.04416596 -0.099995814 -0.10013225 0.0013851953 0.00080615334 0.04033305
0.055152964 0.0012919317 0.029819472 0.046219736 -0.01966435 0.013289638 0.041471515 -0.060126003
-0.106379084 -0.04667789 0.062819175 -7.7384706e-05 0.1435834 0.026771316 -0.015568866 0.15663058
0.021899458 0.01950887 -0.0179755 0.14338443 -0.005346011 0.015240433 -0.0056711556 -0.031815615
-0.028878149 -0.14559782 0.010625494 0.07833588 -0.102398455 -0.006294101 -0.029382361 -0.037535798
-0.008731397 -0.008841087 0.046363328 0.0073266653 -0.039500404 0.040150832 -0.063753776 0.22163774
0.001491884 -0.05993894 0.00015445132 -4.9324926e-09 0.018490326 -0.10265433 -0.01650384 0.02378855
-0.0043792096 -0.07409574 0.03181512 -0.11187463 -0.018566767 0.053731337 0.02039468 3.934307e-08
-0.07427778 0.00014607426 -0.23850626 -0.08091143 -0.14224507 -0.21038432 3.7292832e-08 -0.0022739
-0.27584872 2.9722476e-05 0.08459166 0.00029654847 2.452271e-06 0.011614448 -0.04948663 2.5693842e-08
-0.32528308 -0.121929035 0.0009033262 -9.7471125e-09 -0.055504505 -1.43429055e-08 -0.07165987 -0.1918609
0.010058197 0.0003851098 -0.06496814 -0.25407147 6.0837476e-07 0.020870855 3.5340474e-08 0.022704866
-0.0008531973 -0.004124603 -6.133777e-08 -0.029043159 -0.10975133 0.00021922214 0.00012811426 0.11217837
0.0026155906 9.278792e-06 -0.17945969 -0.17397866 0.00012836595 8.586545e-05 -0.260961 -0.12480796
-2.173825e-08 -0.17830534 1.8839714e-09 1.0824935e-08 0.001440657 -0.2582442 -5.9407203e-08 0.00044334284
2.8385482e-08 0.025860088 0.00046224653 0.06931775 0.000109517736 3.6422633e-05 -0.079136945 -1.3902442e-08
